Model_A3C_save.model (torch, 15367 bytes, 9 tensors)

fc1.weight f4 [32, 29]
000000 bd 0b 4a 3e 68 fe d5 bd da ba 26 bf 2d 3e ee 3d
       0.1973104 -0.10448915 -0.6512886 0.11632953
000010 c7 d8 66 bd f9 64 e4 3d d2 89 ea bd 51 35 3a be
       -0.05635908 0.111520715 -0.114520684 -0.18184401
000020 dc c1 c4 3d 83 ee b0 3e 6c 3b a9 bd 9b 0e 85 bd
       0.09607288 0.3455697 -0.08263287 -0.064969264
000030 f0 91 84 be b3 ce f8 bd fd 60 6b 3d cb 53 07 3e
       -0.2589259 -0.121488 0.057465542 0.13215558
000040 11 09 34 3e 96 68 86 3b f8 a8 75 3d 88 29 6c bd
       0.17581584 0.004101823 0.059975594 -0.057656795
000050 29 54 71 bd 1d fa b5 3e 7b 85 c1 bc 76 b2 19 be
       -0.058918152 0.35542384 -0.023623219 -0.15009484
000060 cb 66 ac be 21 df 1d bd 04 e8 95 3e 2b de 3f bd
       -0.33672175 -0.03854287 0.29278576 -0.046842735
000070 a3 f2 0e 3e 82 b6 cd 3e ff ff 36 bf c5 66 5b 3e
       0.13959746 0.40178305 -0.7148437 0.21425922
000080 a5 10 28 3f 6f 34 01 3e 83 2f 17 3e 1e d9 1d 3e
       0.656504 0.12617658 0.14764218 0.15414855
000090 77 9d 48 3e af 9f 16 be da f8 89 3e e1 14 9a 3c
       0.19591318 -0.14709352 0.2694767 0.018808784
0000a0 82 92 be bc b4 2e f3 bd 9e e6 1d 3e d6 2c c8 3e
       -0.02326322 -0.11874142 0.15420005 0.39096707
0000b0 40 c5 54 be 8e 2f 69 be fa e0 74 3e 9c 24 eb 3b
       -0.2077837 -0.22772047 0.23913947 0.007175995
0000c0 cf da 5d be 9d 31 f0 3d c8 0e b9 3e d2 6d 13 3e
       -0.216655 0.11728213 0.3614409 0.14397362
0000d0 ac 2b a1 bd 55 00 61 be 63 2c 2a be 69 90 52 be
       -0.07869658 -0.21972783 -0.16618495 -0.205629
0000e0 cd d0 1e 3e 56 78 1b be ba 93 e4 3e 98 f4 5e be
       0.15509339 -0.15182623 0.44643956 -0.21772993
0000f0 11 cd 7c be c8 56 c1 3e e9 e7 2a 3d fc 7c bc 3e
       -0.24687602 0.3776152 0.041725073 0.36814106
000100 ed ef c8 3c 63 0d e1 bd 66 34 51 3e d6 99 00 3e
       0.024528468 -0.109888814 0.20430145 0.12558684
000110 b9 05 40 3e e1 69 06 be bf 6b 0d bc 43 2f a9 bd
       0.18752183 -0.13126327 -0.008631646 -0.082609676
000120 da 63 c1 bd b3 61 7b bd ba 8a d2 3c df 5d 9f 3e
       -0.09442873 -0.06137247 0.025700916 0.31126305
000130 99 64 07 be 68 b9 b6 be 2b 31 30 3e a1 97 98 be
       -0.13221969 -0.3568833 0.17206256 -0.29803184
000140 a4 0c fa bd db ed b1 be 7b 00 5e 3d 9d f2 09 3d
       -0.12209442 -0.34751782 0.054199677 0.03367864
000150 ff 2f 14 be 22 d9 f5 3d c0 08 31 3e 87 e2 cd be
       -0.14471434 0.120043054 0.17288494 -0.4021189
000160 2c 77 1d 3c 10 d2 df be b0 8c 51 3f ad 45 4f 3e
       0.009610932 -0.43714952 0.818553 0.20241423
000170 ff b7 5e 3d 0a 23 84 bd 90 dd 88 3e 86 5c 86 3d
       0.05437469 -0.06451996 0.2673154 0.06560616
000180 90 5b 4c 3e dc ff 04 3d 38 2f ea 3d 3e 5a a4 3e
       0.19956803 0.03247057 0.114347875 0.321001
000190 98 20 5c bd 1d 8a 0d 3e 06 b3 3e 3e 44 24 42 3e
       -0.05374202 0.13822217 0.1862298 0.18959147
0001a0 9b 60 1a bd 08 c9 84 3e 93 c1 f4 3d 3a a1 47 be
       -0.037689786 0.25934625 0.11950984 -0.19495097
0001b0 96 8f 95 bd cf 36 bd 3d 99 9d 39 be ef e7 e0 bc
       -0.073027775 0.092389695 -0.18126525 -0.027454345
0001c0 f6 2b e1 3c 59 e6 93 3e 4b b0 2b be 1e e6 80 3e
       0.027486783 0.2888668 -0.16766469 0.25175565
0001d0 32 71 bb 3e 40 b9 19 3f 6d 88 0b bf 9c f7 6c be
       0.366098 0.60048294 -0.54505044 -0.2314133
0001e0 b2 ee b4 3d 50 c9 e6 bd b7 61 5c 3e 98 c1 58 3e
       0.0883459 -0.11268866 0.2152165 0.211676
0001f0 24 8f ac 3d 0f 69 6a bb a4 aa a5 bd de b8 22 3e
       0.084257394 -0.0035768186 -0.08089188 0.15890834
000200 2d 9b d0 3d d4 c0 a0 bd ae 6f d8 3e e7 10 73 be
       0.101858474 -0.07849279 0.42272705 -0.23736916
000210 ac bd 7d 3d 6e e2 e1 3d f9 b3 f2 bd 00 92 62 bc
       0.061948463 0.11029516 -0.11850733 -0.013828754
000220 b2 56 2e 3e 60 dc 0d be b4 cf b9 3c a1 bf 9a bc
       0.17025259 -0.13853598 0.022682048 -0.018890204
000230 7c c2 ad 3e f7 95 6c bd 9b e1 ad 3e 65 ec ec 3d
       0.33937442 -0.057760205 0.33961186 0.11568526
000240 c3 bb a1 3d d3 68 30 3f 05 ea 4a 3e 7e e3 8b 3e
       0.07897141 0.6890995 0.19815834 0.27322
000250 76 1b 9b 3e 9e ff a5 3e 5e 5b b1 bc b8 bf 59 bd
       0.3029439 0.32421583 -0.021650013 -0.053161353
000260 3f f9 46 3d f2 06 14 3e 62 1d 7e 3d c5 77 96 3d
       0.048577543 0.14455774 0.06203974 0.07347063
000270 f0 bc 02 bf d3 d0 e5 be a7 9c bf be c5 68 0e 3c
       -0.51069546 -0.44885883 -0.37424204 0.008691971
000280 a2 3b 01 3a 4c 3c 14 bd cf 60 ff bb d1 40 d9 bd
       0.00049298455 -0.036190316 -0.007793523 -0.10608066
000290 cb ce b7 be 5d ab 48 be 1c 5c 51 bd aa 27 d3 3d
       -0.35899958 -0.1959662 -0.051113233 0.103103
0002a0 ff 68 ae bc f7 9d fd bd 4c 88 9a bb fb 63 89 be
       -0.0212903 -0.12383645 -0.004715955 -0.26834092
0002b0 14 78 03 be 40 7e 33 be 4a 63 05 be fa 16 6b 3e
       -0.12838775 -0.1752863 -0.13026157 0.22957984
0002c0 ee fe a6 3e c5 44 03 3d f0 d8 07 3e eb 3d 24 be
       0.3261637 0.032048006 0.13266349 -0.16039245
0002d0 82 6e f3 3d a2 99 8b 3e 77 45 00 be e0 1e 21 3e
       0.11886312 0.2726565 -0.12526499 0.15734434
0002e0 aa 19 d8 3c a9 bf 27 3e db 29 21 be f0 a1 16 3e
       0.026379425 0.16381706 -0.15738623 0.14710212
0002f0 dc 08 20 3e 38 dc 5d bc f7 6b 57 be eb 16 61 be
       0.1562838 -0.013541274 -0.21037279 -0.21981399
000300 71 cc b5 be 1d 21 a8 3e ad cc 05 3e da 5e af bc
       -0.3550754 0.32837763 0.13066359 -0.021407533
000310 9b be 8c 3d 8a c5 46 be 52 5d c1 be 53 30 01 3e
       0.068722926 -0.19411293 -0.3776651 0.1261609
000320 f6 87 35 bd 39 12 a8 3c 64 ca 0b be 46 07 b9 3e
       -0.044319116 0.020516502 -0.13651425 0.36138362
000330 8a 28 da 3d bc 15 68 3f d1 59 0a bf 4a a7 62 3e
       0.106522635 0.90658164 -0.540433 0.22134128
000340 69 ff c5 3d 4b 7b 89 3d 9f 1f 56 3e 27 92 01 3f
       0.09667856 0.067129694 0.209105 0.50613636
000350 5b ab a3 3e 34 58 bb bd 5f e0 61 3e e0 bc 13 3e
       0.3196667 -0.09147683 0.22058247 0.14427519
000360 20 20 16 be 4e 02 61 be fa 1d 76 bc b9 c5 ad 3e
       -0.14660692 -0.21973535 -0.015021795 0.33939913
000370 a2 db ac 3e e6 09 7d 3c 8b e0 a5 be dc 7e 85 3e
       0.33761317 0.0154442545 -0.32397875 0.2607335
000380 e5 00 87 3e 32 4b 00 3e 8a 3e b1 bd a4 4f 89 3e
       0.2636787 0.12528685 -0.086545065 0.26818573
000390 5c e5 32 be 96 3e 08 be c9 8c a5 bd 8d 7b 9f 3e
       -0.17470306 -0.13305125 -0.08083493 0.3114895
0003a0 33 c5 93 3c b3 4d 63 3e 23 37 98 be e8 ed 82 3d
       0.018038368 0.22197609 -0.29729566 0.06393033
0003b0 18 fe 08 3e a1 05 e4 3e 40 2f 25 3d 1d e6 1c be
       0.13378179 0.44535545 0.040328264 -0.15322156
0003c0 4a 72 dc 3b cb 25 67 be 59 7f 13 3e 0f 00 89 3b
       0.0067274915 -0.2257301 0.14404048 0.004180915
0003d0 73 df 53 3e ed f5 09 3e 7a 3d 82 be 1d 3e 2e 3c
       0.20690708 0.1347272 -0.25437528 0.010634926
0003e0 65 69 9e 3e 04 b6 ef 3d 83 fc 11 3e 09 2e f0 3d
       0.30939785 0.117046386 0.14256482 0.117275305
0003f0 de 64 1b bc 96 fc 8b 3e 12 f6 a8 3b d3 07 27 be
       -0.009484498 0.27341145 0.005156287 -0.16311578

fc1.bias f4 [32]
000000 25 9f ea bd ed e9 00 3e cc 0b 32 3d c8 5f 1c bd
       -0.11456136 0.12589236 0.04346828 -0.03817728
000010 c1 9b 97 3e 36 27 ca 3e c8 30 f7 3b 1c a7 dc 3e
       0.29611018 0.3948304 0.007543657 0.43096244
000020 62 33 52 3e 0e b6 e4 bc 7a cf b4 3e 6b 11 11 3f
       0.20527413 -0.027918842 0.35314542 0.566672
000030 cf 95 0c 3e ee c3 eb bc 9e f9 96 3e 06 c8 1d bf
       0.13729022 -0.02877995 0.29487318 -0.61633337
000040 41 2e 6d 3d 67 a1 ad 3e ff 9f ad 3e 1b 4b c8 3e
       0.05790544 0.33912203 0.3391113 0.391198
000050 61 bd 43 3e 4e e0 76 3e 30 e4 c8 3f 66 9e 0e bc
       0.19115211 0.24109003 1.5694637 -0.008704757
000060 a4 98 28 bd 55 8f 61 3f 69 29 52 3e 2b 9f 10 3f
       -0.041161194 0.8810933 0.20523609 0.5649287
000070 62 9d 36 bf 76 5c c3 bf cc 7b 02 bf 08 04 26 bf
       -0.713339 -1.5262592 -0.5097015 -0.648499

fc2.weight f4 [32, 32]
000000 0e eb 0e bd a4 ce 3e 3d 89 00 fa bd a5 0d 1a 3e
       -0.034892134 0.046583787 -0.12207133 0.15044267
000010 a8 6e 36 3e 8d 5b 38 be eb 57 88 be 16 c5 86 be
       0.1781565 -0.18003674 -0.26629576 -0.2632224
000020 9b 94 a3 be df 7f 09 be 32 f5 a8 39 12 f5 46 be
       -0.31949314 -0.13427685 0.00032226142 -0.19429424
000030 d2 f8 71 3e 38 57 82 3d 69 67 11 3e 6e 68 aa bc
       0.23630074 0.06364292 0.14199604 -0.02080175
000040 ba 7c 18 be ef 76 32 3c f7 54 80 3e 73 8a b2 3e
       -0.1489133 0.010892614 0.25064823 0.34871253
000050 77 53 13 3e a1 51 b7 bd ea 00 50 3d 4f 3b 47 be
       0.14387308 -0.08951116 0.05078212 -0.19456218
000060 00 de 90 3e 09 9b 83 3e 42 86 00 be e9 12 28 3e
       0.28294373 0.2570422 -0.12551215 0.16413464
000070 c6 d3 67 3d 8a 6e 97 be 17 d8 e4 3b d7 94 74 bc
       0.056598447 -0.29576522 0.0069837677 -0.014928064
000080 44 1c ed 3d 81 6f 6e 3d 15 b2 88 bd 03 ce 90 3e
       0.11577657 0.058211807 -0.066745915 0.28282174
000090 75 ae 15 be 34 2d 1a 3e f4 f4 a9 3e 7f 4f 44 3e
       -0.14617331 0.15056306 0.33194697 0.1917095
0000a0 55 43 3f 3e e6 83 53 3e 26 87 65 3e fe 4b d4 3d
       0.18678029 0.20655784 0.22414836 0.10366057
0000b0 3a b5 a3 3e b5 c0 a9 3e a4 d9 05 be a3 64 73 be
       0.31974202 0.33154836 -0.13071305 -0.23768859
0000c0 fc 69 fc 3d 00 57 02 be 4e 6c c2 bd 9c 0a 2e 3c
       0.123249024 -0.127285 -0.09493314 0.010622647
0000d0 25 77 de bd 19 4b 15 3e 67 bc 09 3e ef 59 a6 3e
       -0.10862569 0.14579429 0.13450776 0.3249049
0000e0 e7 01 de bd 5d 2a 30 3e 19 3e 43 3e 27 71 00 3f
       -0.108402066 0.1720366 0.19066657 0.50172657
0000f0 14 c3 9b be b4 39 7f 3c 2a 13 90 3d a6 d2 ea 3c
       -0.3042227 0.015577722 0.07034905 0.028664898
000100 ae a3 e0 bd 5b ad 8a be 27 6d 70 be d0 31 94 bd
       -0.109687194 -0.27085385 -0.23479138 -0.072360635
000110 a5 8d 6f bd 8c 6c e1 3e fa a9 34 3e d3 15 bf 3c
       -0.058484692 0.44028127 0.17642966 0.023325836
000120 79 04 a2 3e 16 a8 04 bf 4f db 5e 3e 5c 05 91 3e
       0.31644037 -0.5181898 0.21763347 0.283244
000130 a0 9d 35 be 2e f5 58 3e 21 d0 14 3f 3e 4c cb bc
       -0.1773591 0.21187279 0.5813008 -0.024816629
000140 63 98 6b be 68 97 b9 3c 40 6d ed bd 65 6a 96 3e
       -0.2300735 0.022655204 -0.115931034 0.29378048
000150 48 ba c1 bb a9 22 a0 bd 31 91 a4 3e a4 71 30 3e
       -0.005912099 -0.07819111 0.32142022 0.1723085
000160 ce 14 2e 3d 4b 66 3a be 50 df 46 3e 3e 54 c0 3e
       0.04250031 -0.18203084 0.19421124 0.37564272
000170 a7 c0 6a be 24 1f 8a be 41 6e f9 3e a3 79 3e be
       -0.22925054 -0.26976883 0.4871693 -0.18601088
000180 ec 5e 3a be 4a a6 26 bd a7 18 8a 3e a4 63 d4 bd
       -0.18200272 -0.04068593 0.26971933 -0.103705674
000190 78 10 7f 3e d7 59 f0 3d ca 36 6e 3e 07 c3 9f 3d
       0.24908626 0.117358856 0.23263088 0.078008704
0001a0 34 d5 27 be 77 59 c8 3c 22 03 68 bc df ae aa bd
       -0.16389924 0.024456723 -0.014160903 -0.08334135
0001b0 79 80 c6 bd 75 42 e2 bd 18 a8 97 3c a7 51 1d 3e
       -0.09692473 -0.11047832 0.01851277 0.15363179
0001c0 81 90 70 3e eb 12 55 bc f1 80 94 bd 97 5e 2c be
       0.23492624 -0.013004999 -0.07251156 -0.16832958
0001d0 ff 6c 93 3e 76 04 88 3d e6 21 ee 3d 1e c8 f5 3a
       0.28794095 0.06641476 0.11627559 0.0018751656
0001e0 8d 48 68 3e 3a f5 8d 3e e6 86 8b 3e e7 92 fe 3c
       0.22683926 0.27726156 0.27251357 0.031075908
0001f0 a9 e9 21 be de 1a 19 3e 22 77 45 3e 6d 9b 4f 3e
       -0.1581179 0.14951655 0.19283727 0.20274134
000200 59 f0 68 3e fb 5e ea bd 0f c4 4c 3e 6c 8c db bd
       0.22747935 -0.11443897 0.19996665 -0.10720143
000210 55 11 3c be 6a 8a bd 3d 65 d8 a8 bc d1 3f e9 bd
       -0.18365987 0.09254916 -0.020610997 -0.11389125
000220 0f bb 89 be 13 6e 2f bd d2 47 8a 3e 73 6a 7b bb
       -0.26900527 -0.042829584 0.2700792 -0.003836301
000230 e4 cc 42 3c be e8 9e 3e d2 9f 93 3e b4 b6 8e 3e
       0.01188967 0.31036943 0.2883287 0.27873766
000240 99 48 02 3e fe fb 0f 3e 0f 26 a9 3e 1d 7d 57 3e
       0.12723006 0.14060971 0.3303685 0.2104382
000250 92 e7 51 bd 6e a3 fb ba f2 63 77 be 54 d4 13 bd
       -0.051246233 -0.0019198486 -0.2415922 -0.036091164
000260 4f 40 6e 3e 47 6d dc 3c 07 d7 55 3e 96 a5 31 3e
       0.2326672 0.026907576 0.20882808 0.17348322
000270 10 39 08 be 3d 86 d5 3e 22 40 9c 3e 53 1e 87 3e
       -0.13303018 0.41703978 0.3051768 0.26390323
000280 92 c3 01 be 49 5a 6e be 5b df 8e bc ad 36 9f 3e
       -0.1267226 -0.23276629 -0.017440489 0.31096402
000290 21 06 5a 3e 56 3f d2 3e 01 e8 e5 3d 50 95 a1 be
       0.212914 0.41063946 0.11225892 -0.3155923
0002a0 f2 ac 57 bd 11 cb 03 bf a3 cd 66 be 74 7e a3 3b
       -0.052655168 -0.5148173 -0.22539382 0.0049894396
0002b0 2c aa cf 3d 44 b4 6e be 77 8c bf 3e 76 46 41 be
       0.101398796 -0.23310953 0.37411854 -0.18874535
0002c0 87 08 aa 3d 24 10 46 be 41 ae 54 bd 76 40 1b 3e
       0.08302408 -0.19342095 -0.051923994 0.15161309
0002d0 0e 43 7d 3e fa 9c b1 bd 2d ac ff be a2 0f 62 bd
       0.2473261 -0.08672519 -0.49936047 -0.05519069
0002e0 09 a0 7b 3e f5 8b 00 3e 4d e7 46 be 1a 7a 8b 3d
       0.24572767 0.1255339 -0.19424172 0.068103984
0002f0 4d 2c 13 3e 82 0b 2f 3e 99 83 5d be 24 d1 9e 3e
       0.14372368 0.17094234 -0.21632232 0.31018937
000300 1c 2b 6d be d1 94 3b bd 28 f1 cb 3e 0f f6 ca 3d
       -0.23160976 -0.04579622 0.39832425 0.09910213
000310 54 46 eb bd 60 0b c3 be 04 ad 41 3e ab 04 ff bd
       -0.114880234 -0.38094616 0.18913656 -0.12452062
000320 bc df 3e 3e 25 1f 87 3e db 51 82 3e be 4a 8f 3d
       0.18640035 0.2639095 0.25453076 0.06996678
000330 64 ec c7 3d 0a c0 60 bd e2 91 00 3e 1e ef 09 3e
       0.09761885 -0.054870643 0.1255565 0.13470122
000340 d6 d1 7c 3e b5 23 e4 3c 18 dd 11 3e a8 07 21 3d
       0.24689421 0.027849058 0.14244497 0.039313942
000350 ac a9 1f be 14 08 64 be 7d 50 a2 be e6 5f c2 3e
       -0.15592068 -0.22268707 -0.31702033 0.3796379
000360 af 76 36 3c e8 44 11 3f ee 44 3d 3e b2 ff 8d be
       0.011136695 0.5674577 0.18483326 -0.27734143
000370 a6 e3 1b be 6c f4 7e 3d 23 55 1d be 31 30 d2 bd
       -0.1522356 0.062244818 -0.15364508 -0.10263098
000380 38 13 26 bc 88 88 0c bd e7 c6 89 be 48 5f 17 3e
       -0.010136418 -0.034309894 -0.26909563 0.1478244
000390 f2 ed 93 3e 93 82 5e be fb 0d 3d bd 59 af 84 be
       0.28892475 -0.21729498 -0.04615591 -0.2591503
0003a0 5c 46 78 be da 9b df 3d 71 b7 2a 3e f8 17 08 3b
       -0.2424559 0.10918398 0.1667154 0.002076624
0003b0 20 e0 88 bd f0 5d 71 3d d4 f6 37 3e 6b 51 16 3e
       -0.066833735 0.058927476 0.17965251 0.14679496
0003c0 25 d8 06 be d3 12 95 3d 3c 2e c7 3d 2b 29 03 bd
       -0.1316839 0.07278981 0.097256154 -0.032021683
0003d0 23 64 0a 3e 50 f8 a2 bb e6 f8 2e be df 0e 89 bc
       0.13514762 -0.004973449 -0.17087135 -0.016730724
0003e0 3f 2c 8c b9 1a eb 3b bd 51 90 35 3f d6 9b 0b bc
       -0.00026735847 -0.045878507 0.70923334 -0.008521041
0003f0 cb 9c d2 3e 51 6a aa 3e 39 d0 9e 3d 4b 57 4a bd
       0.4113525 0.33284238 0.07754559 -0.049399655

fc2.bias f4 [32]
000000 c3 ea 33 3e 3c f4 98 3c 71 12 47 3f a0 d2 df bd
       0.17570023 0.018671148 0.77762514 -0.109288454
000010 24 2e 25 bf a0 be b9 be a2 61 5f be 3d 16 07 bf
       -0.6452353 -0.36278248 -0.21814588 -0.5276831
000020 d3 f5 d3 3c 6a 98 93 bd 0a 71 59 be 7a 1c 84 3c
       0.025874054 -0.07206805 -0.21234527 0.01612686
000030 ef a8 c4 bc 6c a4 84 3e 5e d9 e2 3e ab 06 59 3d
       -0.024006335 0.25906694 0.44306463 0.052984875
000040 4b a3 c8 be b0 5b d8 bd 6f 23 5f bd 80 a8 c0 3e
       -0.39187083 -0.10564363 -0.05447715 0.37628555
000050 bb 1d 53 3d 58 d8 2a bd 0b 52 f4 3d 7d 84 bb 3e
       0.051542025 -0.041710228 0.11929711 0.36624518
000060 be f8 ce be 3d 55 93 3b 86 3c 63 bf d0 16 2c bd
       -0.4042415 0.004496245 -0.88764226 -0.042013943
000070 72 ad 58 be de a2 87 bf cf 9e ee be 01 9e 05 bf
       -0.21159914 -1.0596578 -0.46605536 -0.5219422

fc3.weight f4 [32, 32]
000000 bd 3c 6f 3d 39 f7 90 be 9a 2a e4 bd 98 06 8c 3e
       0.058407534 -0.28313616 -0.11140938 0.2734878
000010 ef 52 8f 3e 81 1f f0 3e 47 dd 6f be fd 54 61 3c
       0.2799296 0.46899036 -0.23424254 0.013753173
000020 09 09 e6 3e d3 08 65 3e 20 df 80 bd 09 61 a8 be
       0.44928768 0.22366647 -0.06292558 -0.32886532
000030 a2 85 52 bc e2 6e 4b 3e 8c 3b 0d be 1f 2c 9d 3d
       -0.012849243 0.19866517 -0.13792247 0.07674431
000040 ba 9d 44 3d 7c f8 36 3e 86 ec 3c bd 32 b1 bd 3e
       0.048001982 0.17868227 -0.046124004 0.37049252
000050 b2 d1 b2 3e 1a a4 ea 3d 67 80 8c bd 23 f9 cf 3e
       0.3492561 0.11457081 -0.06860428 0.40619764
000060 db ab 14 bd 8a 21 e7 be 86 58 a0 3e 40 0c e3 bd
       -0.036296707 -0.45142776 0.31317538 -0.11086321
000070 13 d7 81 3e 2a c6 92 3e e8 62 c7 bd 45 87 77 3e
       0.253594 0.28666812 -0.09735662 0.24172695
000080 cd d1 d6 3c 14 ba 33 be a0 76 08 bd 51 77 c4 bd
       0.026223088 -0.17551452 -0.033316255 -0.0959307
000090 2c 78 2f 3e ea e1 89 bd 0a 15 91 3d 06 e2 93 be
       0.17135686 -0.06732543 0.07084091 -0.2888338
0000a0 4e c3 95 be 3b 4d 63 3e 1f 2e 31 bd dd 28 0d be
       -0.29250568 0.2219743 -0.043256875 -0.1378512
0000b0 98 0f 8c bd d6 f4 87 be 4f 44 f3 bd fb e2 10 bd
       -0.06838912 -0.26553982 -0.11878263 -0.035372715
0000c0 91 fe 11 be 48 3e 13 bd 52 98 48 be fb 0d b0 bd
       -0.14257266 -0.035948068 -0.19589356 -0.085964166
0000d0 f3 82 69 3e c2 e0 58 be 33 1d 9b be 5c 52 88 3d
       0.2280386 -0.21179488 -0.30295715 0.06656334
0000e0 3c c1 9c be e5 a6 81 bc 86 6c 43 be b8 40 84 be
       -0.30616176 -0.015826652 -0.19084367 -0.25830626
0000f0 66 6d 03 be 68 bd 8a 3e fa 52 3f 3e c8 fc 0b be
       -0.12834701 0.2709763 0.18683997 -0.13670647
000100 c2 bd 68 3e 84 91 6e 3e ef 72 b5 bd fb 88 ef bc
       0.22728637 0.23297697 -0.088598125 -0.029240122
000110 f4 2b f5 3e 51 c2 04 3f 84 03 4f 3e 59 e4 29 3e
       0.47885096 0.51859003 0.20216185 0.16591014
000120 69 c2 a2 3e 6a c2 4b 3e 3d 3f 63 3e 72 e6 92 bd
       0.31788948 0.19898382 0.22192092 -0.0717286
000130 ac 45 43 be 13 ff b3 3b 2d bd 9c 3e 3b 28 1b 3d
       -0.19069546 0.0054930537 0.3061308 0.037880164
000140 f4 bf 3f 3e 70 32 9e 3d a1 80 8f bd 86 92 51 bd
       0.18725568 0.07724464 -0.07006956 -0.051165126
000150 35 61 8d be bf 64 cc 3e 0a ea 24 3e f0 7d 1f 3e
       -0.27613226 0.39920613 0.16104904 0.15575385
000160 10 e6 cf bd ed 2e 2f be 75 05 d1 3e 74 f3 4e 3e
       -0.10151303 -0.17107745 0.40824476 0.20210057
000170 57 d4 1d bc a6 67 1c 3e c6 2b bd bd 15 18 90 be
       -0.009633145 0.15273914 -0.09236865 -0.28143373
000180 c0 79 bb 3d de 5d 57 be 9c ae 1e be 8e 83 93 3d
       0.09154081 -0.21031901 -0.15496296 0.072028264
000190 5c b6 85 3e 68 0b a7 3e 14 7b 09 3e f2 b0 39 bd
       0.26115692 0.3262589 0.13425857 -0.045334764
0001a0 bf 61 89 3e 2f c4 f2 bc 02 d7 90 3e 5f e4 56 bd
       0.26832387 -0.029634563 0.28289038 -0.052463885
0001b0 85 eb 90 3d 98 ea e7 3d 02 b0 a1 3d 98 4c 75 be
       0.07076172 0.11324042 0.07894899 -0.23955
0001c0 51 7a 0f 3e 08 fc 11 3e 65 1a a1 bd 59 f9 93 3e
       0.14011504 0.14256299 -0.078663625 0.28901175
0001d0 2c e7 c3 be da a1 57 3e 04 da 2e be b9 ea 3e be
       -0.38262308 0.21057835 -0.17075354 -0.18644227
0001e0 0f da 94 3d d3 4e f5 3d 13 f1 2d 3e c0 fc 59 be
       0.07268154 0.11977925 0.16986494 -0.21287823
0001f0 8c f4 74 be 73 05 2d bc 48 6d 9f 3e ca 21 3a be
       -0.23921412 -0.010560381 0.31138062 -0.18176952
000200 e8 da bb 3e 23 bf 43 bc 2d 50 0a be 55 a0 75 3d
       0.3669045 -0.011947426 -0.13507147 0.059967358
000210 4a 9a 1a 3f ab 38 32 3f c6 06 80 3e 21 2a 26 bd
       0.60391676 0.6961772 0.25005168 -0.04056752
000220 85 f1 7f 3e 72 1d a1 3e 12 d1 7d 3d 73 a9 79 be
       0.24994476 0.31467777 0.061966963 -0.24381046
000230 57 29 f6 bd e5 d9 f1 bd f1 bf e7 3e 44 28 59 be
       -0.12019604 -0.11809138 0.45263627 -0.21206766
000240 f9 44 29 be 7d 07 1a be 33 40 6b be 96 89 db 3d
       -0.16530217 -0.15041919 -0.22973709 0.10719602
000250 e6 76 80 3d a0 c5 7a 3e d6 93 d3 bd fd 70 32 3e
       0.06272678 0.2448945 -0.10330932 0.17425914
000260 05 e9 46 3d a2 0a 15 be 2d 91 45 3e bc 1f 55 bb
       0.04856207 -0.14554837 0.19293661 -0.0032520136
000270 88 a9 38 bd f3 b4 0e 3f 46 00 68 3e 26 de 35 3e
       -0.045083553 0.55744857 0.22656354 0.17760524
000280 b1 d2 07 be 84 ce 7b be 4c a3 c7 3d d4 c4 51 be
       -0.13263966 -0.24590498 0.09747943 -0.2048524
000290 dc de 92 be bb b3 d3 be 05 6c 65 be 2d 7b b2 be
       -0.28685653 -0.4134806 -0.22404487 -0.348596
0002a0 1e d4 9c 3e 66 14 7c 3e f8 55 35 be 40 7e 9c be
       0.30630583 0.24617156 -0.17708576 -0.3056507
0002b0 7c 58 4d be 13 db 2c be 92 d3 9c 3e a8 2b 85 be
       -0.20053285 -0.16880445 0.30630165 -0.2600987
0002c0 ca 09 9d 3d 23 8d b9 3d 71 8c a9 be 3d ee d3 3d
       0.07667883 0.09060123 -0.3311496 0.10348175
0002d0 64 46 b4 3e e9 a1 82 be 37 2b 2c 3e 89 48 bc be
       0.35209954 -0.25514153 0.1681336 -0.3677409
0002e0 a4 fb e4 bd d9 6e 50 be 3d e2 cb be 5e 9d 4d 3e
       -0.11180809 -0.20354785 -0.39821044 0.20079562
0002f0 df 02 13 3c c0 42 18 be 45 1a 04 3e 69 29 95 3e
       0.0089728525 -0.14869213 0.12900646 0.29133156
000300 d0 66 bc 3e 32 26 2e 3e d2 a8 89 3e ae 6b 18 be
       0.3679719 0.17006758 0.26886612 -0.14884827
000310 d8 7a ec 3d c2 34 d4 3e da d9 31 bd 27 a3 d3 3e
       0.11546868 0.414465 -0.04342065 0.41335413
000320 1a ff 16 be b4 a6 34 3e b0 78 e9 bd 84 70 18 be
       -0.14745751 0.17641717 -0.113999724 -0.14886671
000330 38 1a 4b bb 71 a2 a0 3e ef fe 97 3e ed 03 1e 3e
       -0.003099097 0.31373933 0.29686686 0.15431185
000340 77 6f cf bd 65 3a 0a be f3 b1 78 3e 36 3b d6 3e
       -0.10128682 -0.13498838 0.24286632 0.4184205
000350 6d 31 c3 3b 1a d5 01 bd 20 fd a0 be 53 28 e4 3d
       0.0059568197 -0.03169737 -0.3144312 0.11140504
000360 f9 a3 a8 3e 29 34 ac be 87 3d b6 3d 25 d1 8b 3e
       0.329376 -0.33633545 0.08898454 0.27308002
000370 cb 4d 91 3d 33 a5 1a 3e 4d 2b 88 3e 0f 11 82 3e
       0.07094916 0.15102081 0.26595536 0.2540364
000380 51 41 67 3d 7e c8 1d 3e 5d 96 a6 be ef 0b 42 be
       0.056458775 0.15408513 -0.32536593 -0.18949865
000390 74 e3 50 3e b7 d3 3f 3e 77 9e 43 bc 09 2a a0 bd
       0.20399266 0.18733107 -0.011939636 -0.078205176
0003a0 42 d0 48 3d 38 6e 21 be b8 9a 0f 3e 31 4d a4 3d
       0.049026735 -0.15764701 0.14023864 0.080225356
0003b0 1a c0 27 be 39 e2 3b 3e c7 bc 1a 3e 6f c1 2d be
       -0.16381875 0.18348016 0.15111075 -0.1696832
0003c0 a9 90 9f be 16 0e 24 be de be 1e be 5a 90 bd bb
       -0.31165054 -0.16020998 -0.15502498 -0.0057850303
0003d0 db 8d 1a 3e 35 46 21 3e a9 6c c8 be 12 29 2f 3e
       0.15093176 0.15749438 -0.391454 0.17105511
0003e0 46 3f 07 bd d9 87 ed 3c 0d 2d 3c bd 4a 45 8c be
       -0.033019327 0.028995441 -0.0459414 -0.27396613
0003f0 24 f1 cf 3d 76 64 dc 3d a6 d3 3f be be b1 bc bd
       0.10153416 0.10761349 -0.18733081 -0.09213589

fc3.bias f4 [32]
000000 b0 2f 20 be 00 00 00 00 48 a5 f0 bd e0 9a fe 3c
       -0.15643191 0.0 -0.11750275 0.03107971
000010 bf 80 2e be 1a c2 b0 3e 53 74 13 be 70 8f b2 bc
       -0.170413 0.34523088 -0.14399843 -0.021796912
000020 aa 2e 8c 3e 00 00 00 00 73 d8 ec bd 64 66 e4 bd
       0.27379352 0.0 -0.11564722 -0.11152342
000030 23 10 c6 bc 92 60 ed bd 5f 7a 17 bf f2 8e 7e 3e
       -0.024177616 -0.11590685 -0.591711 0.24859217
000040 d8 66 0c be b7 6d 0e be a4 96 23 be 2d 1d 88 bc
       -0.13711107 -0.1390904 -0.15975434 -0.016615475
000050 cc fe d8 3d 34 d1 8b bc 3f 2d ed bd e6 8e 53 3f
       0.10595474 -0.01706753 -0.11580896 0.8263992
000060 bc 1a fc bd 02 24 70 bb b4 c6 cd bd fd 6b 5c bd
       -0.12309787 -0.0036642556 -0.10047665 -0.053813923
000070 ae bd 9d bc 55 63 0b be a7 a5 f2 bd f8 d6 38 3c
       -0.019255485 -0.13612111 -0.11848002 0.011281721

Pi.weight f4 [2, 32]
000000 5a 59 05 be 29 c7 50 3e a0 a2 e4 bd a1 a4 b7 be
       -0.13022366 0.20388474 -0.11163831 -0.3586779
000010 25 91 d1 be c3 a0 8b 3d a2 fb 03 3e 13 6b 5f bd
       -0.4093105 0.06817772 0.12888959 -0.054545473
000020 5d 22 56 3e f1 58 ad 3e 90 76 bc 3e 96 cd 04 3e
       0.20911546 0.3385692 0.36809206 0.1296905
000030 cb 14 c5 3e 0a 37 1f be a7 ce 06 bf af b1 fa 3e
       0.38492426 -0.1554834 -0.52659076 0.48963687
000040 72 d9 0f 3e 21 17 99 be 43 5d dd 3d e3 d5 94 be
       0.14047793 -0.29900458 0.10808804 -0.29069433
000050 59 6d 70 3e ba 2e b8 3d 70 f0 8f 3e 4b d9 b1 3e
       0.23479213 0.089932874 0.28113127 0.34736094
000060 21 0e c0 be 84 e7 0c be be c9 3e 3e 5f 95 c4 3e
       -0.3751078 -0.13760191 0.18631646 0.3839521
000070 df 9e 94 be fe 63 85 3e e1 b3 c6 3e 4d 16 aa 3e
       -0.2902746 0.2605285 0.38809112 0.3322014
000080 dc fa 16 3e 87 bc 25 be f6 aa 86 be 9e 40 03 3e
       0.14744133 -0.16185199 -0.26302308 0.12817618
000090 bb be e6 3e 78 4a 98 3e da 43 8b 3e 77 0e f9 3b
       0.4506739 0.29744315 0.27200204 0.0076006013
0000a0 a3 59 00 bf ff f0 93 be 42 e4 ac 3e d7 0c a9 be
       -0.50136775 -0.28894803 0.33767897 -0.3301761
0000b0 73 f4 85 be cf 48 94 be 6f 31 8f be a5 ee da be
       -0.26163062 -0.289618 -0.27967402 -0.42760196
0000c0 d4 7c e3 3e ad 1e 23 be 17 9a cd 3e 70 32 95 3e
       0.44431174 -0.1592967 0.40156624 0.29140043
0000d0 6a 8c 28 3e 71 11 fa bd 10 13 a9 3d 40 dd f0 bb
       0.16459814 -0.12210358 0.08255589 -0.007350594
0000e0 2e 46 0c be c1 a1 43 3f ba aa 10 be 4b 72 cd 3e
       -0.13698646 0.7641869 -0.14127627 0.4012626
0000f0 fd 4e 9e 3e 31 61 a4 3e 0d 2e b3 3d 87 68 93 be
       0.30919638 0.321054 0.08749018 -0.28790686

Pi.bias f4 [2]
000000 07 39 15 3e 23 40 14 be
       0.14572535 -0.14477591

V.weight f4 [1, 32]
000000 d9 f0 27 be 12 26 3f 3e 8c cb 8f be 2f 94 1e 3f
       -0.1640047 0.18666866 -0.2808498 0.6194486
000010 7a ca e9 be ed c3 56 3e a7 e2 56 be a5 b5 e8 3e
       -0.4566229 0.20973177 -0.20984899 0.45451084
000020 17 6a 13 be 07 1f 85 be d1 ec c7 be 83 b0 d1 be
       -0.14395939 -0.26000234 -0.39047864 -0.4095498
000030 7e 7b c0 3e 9a e5 54 be 11 58 6b bf 8b 13 bf 3e
       0.37594217 -0.20790711 -0.91931254 0.37319598
000040 05 1d 99 be c4 f1 e5 be be 5b 25 be d5 7c 47 3e
       -0.29904953 -0.44911015 -0.16148278 0.19481213
000050 1f 6c 1b 3e 0b c1 93 3e 7e e1 86 be 8a b0 34 bf
       0.15177964 0.28858218 -0.26343912 -0.7058188
000060 4a 77 d6 be da 02 88 3e b2 f1 8c be 74 67 9a 3e
       -0.41887885 0.26564676 -0.2752815 0.30157053
000070 bb 67 1d 3e 76 f5 9d be 85 bb d3 be 78 88 cb 3e
       0.15371601 -0.30851334 -0.41354004 0.39752555
