Model_save.model (torch, 15367 bytes, 9 tensors)

fc1.weight f4 [32, 29]
00000000: d549 9e3e 6814 8b3e 2089 983e c5e2 1abe
00000010: 95b8 0f3e d796 a0be 30f8 243e 4c9c 273c
00000020: 498d 783e fa30 8cbe 86da 6ebe 5bbc 3c3d
00000030: c54e 91bd 8d0a 8e3d 3adb f2bd 5211 c2bc
00000040: d299 2cbd 6ac0 ebbb c746 cd3d 7d91 9b3e
00000050: 395f dcbd 3df7 79be d910 0a3e efbb 373e
00000060: 001d dabc 4052 4e3e 2175 3b3e 9926 e3bd
00000070: ba89 873e a928 39bb 49b2 8cbe ff79 003e
00000080: 4ff0 193e 684a 8ebe 8bc6 823e ce9e 863e
00000090: 09db 05be 724b 5f3e 098b 14bc 0423 473e
000000a0: e7fd 48be da98 8ebe ffa2 4fbe 0068 ac3d
000000b0: bef3 73be c488 8dbd 629d 483e f2d4 093e
000000c0: 0eeb 17be ecd1 623e 3d30 78be ce39 953d
000000d0: f0a0 4cbe fe62 a03e 139c 313e 93e7 1c3e
000000e0: 3571 cf3d 4fa1 e5bd e26f e23d e513 95bd
000000f0: e2c7 21be 85ed 8dbe 8f50 db3d 8060 97be
00000100: 2043 8e3e 38a0 83be 020e 87be 9d97 343e
00000110: fd8a 0bbd 01b4 0c3e b59d bd3d 2d36 853e
00000120: 4c33 593d 15bb 50be 8df6 45be 8b8e 0cbc
00000130: 1a47 31be 5d89 d2bd 21f2 22bd 100e d4bc
00000140: b549 0e3d e7cf 9f3e 95e8 96be 3877 7fbe
00000150: 1026 d13c f468 02be 93fd be3d fc10 e3bb
00000160: 87f6 90be e3e0 283e 2d30 32be 0815 5fbe
00000170: a264 67be 0313 25bd c9e7 37bd 98af 503d
00000180: 312f 99be 9071 87bd 028b 213e 8c8a 793e
00000190: 3460 fd3d a97c 603e 2963 843e 0f46 ba3d
000001a0: 4abb a33d fa35 533d 7bb3 44be 24e8 6abe
000001b0: 4074 6f3d b334 173c 42d9 53be 680f 07bd
000001c0: 98e1 9d3e 42fd 133b 9062 a03d 1477 c1bb
000001d0: 581e 973e 2970 84be 0320 833d cebf 8abe
000001e0: 3c86 b03c 09ad 613d be82 7dbc ca87 c43d
000001f0: c310 2a3d 3f43 d93d ae78 2d3c 8e00 9d3e
00000200: b0f2 33bd bb65 9b3e 4e47 353d 7858 8dbd
00000210: 0571 8abd 7af2 29be 9173 31be 95b8 793e
00000220: 5e06 a13d ed68 6dbc d98a d43d 4171 1b3c
00000230: ae1d 3e3a ca6b a5bd 516c 5a3e 0862 7c3e
00000240: 7e57 833e ea81 313d f02a 873e d6e5 1bbe
00000250: d208 7dbd 29e4 393e 96eb 83be 53f4 7dbe
00000260: d275 313e 97a4 7cbe b279 0d3d 95b3 e4bd
00000270: 96e4 83be 9465 8ebb 5217 743e 0b85 733e
00000280: da45 61be 74c3 4fbe 537f 17be 9597 d6bd
00000290: ecef 3bbd 558d 99bd 7498 b83d 40ae f4bd
000002a0: 395a 47be 34e2 9c3e 7659 4fbe 091d 1ebe
000002b0: 6fe4 0a3e 4b6e 963e c007 af3d ccba 113e
000002c0: 413a 263d 0c15 31be 6988 88be ca45 203e
000002d0: 0922 eb3d 4e5f 93be e8df 41bd ee1a e83d
000002e0: eaee 9d3e bcd9 893e 8572 a7ba a567 2dbe
000002f0: 64a2 25be c62a 4d3d 1198 4a3d 01b9 88be
00000300: 850b ff3d be30 8c37 817b 50be 42b4 033e
00000310: a184 8fbe cbdc 543d 7861 493e 39b6 953e
00000320: 8cf4 5a3e bb38 d63d 16a0 e73d 88b2 7a3e
00000330: 2819 33be d017 62bd 49fe 3a3e 6927 8bbe
00000340: b4ea 50be 4394 b13c eb4d 53be 09f6 fe3d
00000350: 58c4 f4bd 3451 a1bc de6b 8aba dedb 55be
00000360: d890 c43d d29d 25be 9990 0abd 57bb 54bd
00000370: 6486 f73d e4bb 3ebe 5647 583e 4edc 093e
00000380: e4a4 88be 28ea 553e 2aa8 4bbe 5436 adbd
00000390: 00d3 80be ba5b 3d3e 1d56 74be eee0 773d
000003a0: 1b98 6bbe 9e63 883e c530 4fbc 3d48 41be
000003b0: e176 97be e964 64be 3596 4bbc 6aff 813e
000003c0: d2a1 83be bb0b 82be 6eef a1bd 67d4 8b3e
000003d0: 2feb 193d 7f97 ee3c 06e5 3ebe 4c4b 99be
000003e0: 0e34 11be 026b 4b3e 7d42 8a3e e835 d6bd
000003f0: 1883 3bbe 856e 82be ffb1 29be 4a9a 1ebe
0.30915704 0.27164006 0.29792118 -0.15125568 0.14035256 -0.31365082 0.16110301 0.010230135
0.24272646 -0.27381116 -0.23325548 0.046078067 -0.07095102 0.06935606 -0.118582204 -0.0236899
-0.042138882 -0.0071945684 0.10023265 0.30384436 -0.1076035 -0.2441072 0.1348299 0.17942785
-0.026625156 0.20148563 0.183064 -0.11091346 0.26472265 -0.0028252995 -0.2747977 0.12546538
0.15033077 -0.27791142 0.255421 0.26293033 -0.13071837 0.21806124 -0.009066352 0.19446951
-0.19628106 -0.2785099 -0.20277022 0.08418274 -0.23823449 -0.069108516 0.19591287 0.13460138
-0.1483576 0.22150391 -0.24237151 0.07286416 -0.19983268 0.31325525 0.17344694 0.15322714
0.101290144 -0.11212408 0.11056496 -0.07279185 -0.15798905 -0.27720276 0.10708725 -0.2956581
0.27785587 -0.25708175 -0.26377875 0.17635961 -0.034068096 0.13740541 0.09258596 0.26017895
0.053027436 -0.20383866 -0.19332333 -0.008578907 -0.1731228 -0.10280106 -0.039781693 -0.025885612
0.03473826 0.31213304 -0.2947432 -0.24947822 0.025530845 -0.12735349 0.09325709 -0.006929515
-0.28313085 0.16492037 -0.1740119 -0.21785367 -0.22596982 -0.040301334 -0.044898782 0.05094871
-0.29918817 -0.06613457 0.15775684 0.24369258 0.12371865 0.21922554 0.25856903 0.09095394
0.07994707 0.051565148 -0.19209091 -0.22940117 0.058460474 0.009228873 -0.20688346 -0.032973677
0.30836177 0.0022581373 0.07831299 -0.005904088 0.29515338 -0.2586682 0.0640259 -0.2709946
0.021548383 0.05509666 -0.015473066 0.09596212 0.04151989 0.10608529 0.010587854 0.30664486
-0.043932617 0.30351052 0.044257455 -0.0690164 -0.06759838 -0.16596404 -0.17329241 0.24386819
0.078625426 -0.014490348 0.103780456 0.009487451 0.00072523474 -0.080772 0.21330382 0.24646771
0.2565269 0.043336786 0.26399946 -0.15224394 -0.06177599 0.18153442 -0.25765675 -0.24800234
0.17330101 -0.24672161 0.034539886 -0.11167065 -0.25760335 -0.004345605 0.23837021 0.2378122
-0.21999303 -0.20289403 -0.14794664 -0.10478131 -0.045883104 -0.0749766 0.09013453 -0.11947298
-0.19468011 0.3064133 -0.2024897 -0.15440764 0.13563703 0.29381022 0.085464 0.14231414
0.0405829 -0.17293185 -0.26666573 0.15651622 0.11481101 -0.2878365 -0.047332674 0.113332614
0.3084634 0.2692393 -0.0012775218 -0.16934069 -0.16175228 0.05008962 0.049461428 -0.26703647
0.12453369 1.6711998e-05 -0.20359613 0.12861732 -0.28030875 0.051968377 0.19666088 0.29240587
0.2138235 0.10460039 0.11309831 0.24482167 -0.17490065 -0.05519849 0.18261065 -0.27178505
-0.20402032 0.021677142 -0.20635192 0.12449271 -0.11951512 -0.019692041 -0.0010560711 -0.20884654
0.09597939 -0.16173485 -0.033829305 -0.051936474 0.1208618 -0.18626362 0.21120963 0.13462946
-0.26688302 0.20890105 -0.19888368 -0.08457628 -0.2516098 0.18492022 -0.23860975 0.060517244
-0.23007242 0.26638502 -0.012645905 -0.18875213 -0.29582885 -0.22304119 -0.012425949 0.25390178
-0.25709397 -0.25399575 -0.07906996 0.27310488 0.037577804 0.029124973 -0.18642053 -0.2994026
-0.14180014 0.19865039 0.27003852 -0.104595006 -0.18311727 -0.25474945 -0.16571806 -0.15488544

fc1.bias f4 [32]
00000000: d03f afba 0000 0000 933f af3a b53f afba
00000010: ad3f af3a 463f afba b13f af3a 0000 0000
00000020: cf3d afba cd3f afba 6c3e af3a c23f af3a
00000030: c43f af3a c83f af3a cb3f afba ce3f af3a
00000040: ac3f af3a c53f afba ca3f afba b43f afba
00000050: ac3f afba 543e af3a c23f af3a c43f afba
00000060: ad3f af3a 393f afba d33f afba d13f af3a
00000070: be3f af3a ee3e afba 0000 0000 cd3f af3a
-0.0013370458 0.0 0.0013370387 -0.0013370427 0.0013370417 -0.0013370297 0.0013370422 0.0
-0.0013369861 -0.0013370455 0.0013370044 0.0013370442 0.0013370444 0.0013370449 -0.0013370452 0.0013370456
0.0013370416 -0.0013370445 -0.0013370451 -0.0013370425 -0.0013370416 0.0013370016 0.0013370442 -0.0013370444
0.0013370417 -0.0013370282 -0.0013370462 0.0013370459 0.0013370437 -0.0013370195 0.0 0.0013370455

fc2.weight f4 [32, 32]
00000000: 3a53 793e 6e86 683d 6f7c a13d 54ad 8b3e
00000010: b972 563e 5963 59be 0421 393d f2a6 6abe
00000020: 3356 293e cbe9 98bd d1e2 313d 21b9 90bd
00000030: b368 813e 1529 203e 49d2 dd3d f547 86be
00000040: b481 96be 7fd7 2f3e 39c8 53be 2de5 fb3d
00000050: 47a3 633e 9193 ebbd 1ae8 7d3e e685 71be
00000060: 114c 983e a044 96bd 07b5 bebd 77c2 1a3d
00000070: 94e6 753e 4f10 87be 014f 6dbe 32da 86be
00000080: 0cff 063d 6f17 de3d fae9 32be 5571 0bbd
00000090: e5d6 75bc 825a 81be 7bb0 8ebe 66b6 243e
000000a0: 3a5c a2bd 5450 c73d 9a1d 503e 319e 54bd
000000b0: 6038 54be 905e 9bbe 050f 26be 5ee8 f13d
000000c0: 6f3f 543e 7acd 70be 0847 8cbe 6fe8 5fbd
000000d0: 7597 9c3e 369d 8e3e 24e9 be3b b022 31be
000000e0: 7cab 93be d816 343e e1b8 113e 4d3d a43d
000000f0: 6d19 e03d 373d d73d f1f8 19be f15a 02be
00000100: da85 87be b036 853e 0a6b 3cbd 676f ebbd
00000110: 29f1 71be 1b08 35be 7c00 383e 1aa7 2f3e
00000120: c985 9a3e c758 0dbd aa94 9cbd 3455 423e
00000130: 2fd9 663e c2ad 8b3d 59d6 fc3d b243 a63c
00000140: 2c21 883e f060 74be ee0c 203e 0dfa 5b3e
00000150: 03e3 383d e1d1 2abe 5c30 5f3e da79 5ebd
00000160: dc3c 913e 9500 0e3e 394d ccbd f6fa 0fbd
00000170: 00d6 be3d e1fd 013e ae54 713e fa6e 1fbd
00000180: 1f44 163e a803 91be 3a36 c1bc 5dd8 573e
00000190: abf6 9d3d e95e 853e f25c 86be 8614 aa3d
000001a0: 269a 7b3e c5e0 0c3e 218c 2f3e 9423 f73d
000001b0: b35b 08be 1f20 af3d 627a 72bc 461c 13be
000001c0: cfb2 cabc 241b 03be 69a6 3fbe 836f 17be
000001d0: ef6e 763e 4ff3 7d3d f240 523e 49cb 88bd
000001e0: 39a0 97be 858e d7bd 2ffb 8f3e 58b1 373e
000001f0: 2b34 57bd ca21 ae3c e37d b9bd b53b 98bc
00000200: 48f8 943d deab 603e 264c a4bd d292 8abe
00000210: e1ad 1fbe 4b64 2fbe fc53 2dbd 39e6 15be
00000220: 4560 fa3b 101e 13be 20d7 91bd a6dd 703e
00000230: 0ff5 79be 8bb3 0e3c e1d7 283e 999a 7bbd
00000240: e4f4 5dbe 35f5 d93d 3fb7 f93d c6de 4d3c
00000250: 9876 663e 04ae 043e 979e 903e fde9 34be
00000260: 6787 9d3d 3eef 48be 9c65 4c3e cfcf 35be
00000270: 2da1 3d3e 6001 c3bd 2d5e 333e 6889 1dbc
00000280: 183a 99bd 6169 16be 855a 443d a10a 573e
00000290: f280 893e 8708 abbd f22e 2dbe 1f5f b0bd
000002a0: a4b6 b1bd 2569 98be 8551 953e c335 5a3e
000002b0: 2d5d d1bd 9f43 923e 688f a4ba 5e33 03be
000002c0: c5cf 7a3e 374f edbd 4caf de3c 3717 72be
000002d0: a67e dbbd acc3 88be cd68 7fbe 6ae6 91be
000002e0: f95e 0abe 41ec 7b3e 93ca 8dbe 89f7 863e
000002f0: 8b5e 963e 7368 acbd 1c2f 943e 16d2 053e
00000300: dbc5 c43d 677b 103e 0a59 593d 246c e43d
00000310: efc7 7a3e c39d c33d 1b5f 22be 4cf1 f83b
00000320: 3001 fabb fb6b 4fbe 8177 3abe a480 08be
00000330: edf6 e9bd 8582 8ebe ee92 19bd dcd9 0cbe
00000340: 236e 053e 1ce9 87be b1d7 dfbb 2fd3 debc
00000350: fb69 013d 3755 c13c 0414 42be 9d1f eebc
00000360: 02c2 7f3e 9a6d 363e 9a98 873e 515d 8dbe
00000370: 6b4c 573c 86bd 303e 9ce4 b1bd b2dd 963e
00000380: e534 853e c696 ffb8 9cc7 03bc 8d90 1b3c
00000390: 8348 043e 6e7d 8dbd 8e4e c2bd f466 84be
000003a0: 5a07 993d 1791 893e ba43 993e fc14 703e
000003b0: 6685 86be 333c 05be f4fe 2b3d 65cd 0fbe
000003c0: 035b abbd aef3 913d 9cc1 f43d 0d04 01be
000003d0: cd58 7f3e 8357 06bd bed3 30be a905 973e
000003e0: 3e5d 81be 6ed4 c8bc 0778 6d3e b83e 33be
000003f0: 027d af3c 47e0 f9bd e918 4f3c 75dd 93bd
0.24348155 0.056768827 0.07885062 0.27280676 0.209422 -0.21229304 0.0451975 -0.22915247
0.16536789 -0.074664675 0.0434292 -0.070665605 0.25275192 0.15640672 0.10831124 -0.26226774
-0.2939583 0.17172049 -0.20681848 0.12299571 0.22230254 -0.115027554 0.24795571 -0.23586234
0.29745534 -0.07337308 -0.09311872 0.037783112 0.2401374 -0.2637963 -0.23174669 -0.26338345
0.032958075 0.10844313 -0.17472067 -0.03404363 -0.015004848 -0.25264364 -0.2786902 0.16085204
-0.07927747 0.09732118 0.20323792 -0.051908676 -0.2072463 -0.30345583 -0.16216667 0.11811899
0.20727323 -0.23515883 -0.27397943 -0.054665025 0.30584303 0.27854317 0.0058261324 -0.17298388
-0.2884177 0.17586839 0.14230682 0.08019505 0.109423496 0.10509723 -0.1503637 -0.12730004
-0.26469308 0.26018286 -0.046000518 -0.11495858 -0.23627152 -0.17678873 0.17968935 0.17153588
0.30180195 -0.034508493 -0.07645543 0.18977815 0.22543786 0.06820251 0.12345571 0.020295952
0.26587808 -0.23865104 0.15629932 0.21482106 0.04513837 -0.16681625 0.21795791 -0.054315425
0.28366745 0.1386741 -0.099756666 -0.035151444 0.09318161 0.12694503 0.23567459 -0.038924195
0.14674424 -0.28323102 -0.023585428 0.2107863 0.07713064 0.26048973 -0.26242787 0.08304696
0.24570522 0.13757618 0.17143299 0.12067333 -0.1331623 0.085510485 -0.014799686 -0.14366254
-0.024743466 -0.12803322 -0.18715824 -0.14788632 0.24065755 0.061999615 0.20532587 -0.066793986
-0.29614428 -0.1052523 0.28121325 0.17938745 -0.052539986 0.021256346 -0.09057214 -0.018583158
0.072739184 0.21940562 -0.08022337 -0.2706514 -0.15593673 -0.17128102 -0.042316422 -0.14638604
0.0076408708 -0.14366937 -0.0712111 0.23522052 -0.24409889 0.008709799 0.16488601 -0.061426733
-0.2167545 0.10642473 0.121931545 0.01256532 0.22506177 0.12957007 0.28245994 -0.17667384
0.076918416 -0.19622514 0.19960636 -0.17755054 0.18518515 -0.09521747 0.17516394 -0.00961528
-0.07481784 -0.14688636 0.04793789 0.21000148 0.2685619 -0.08351236 -0.1691244 -0.08611893
-0.08677414 -0.2976772 0.29163757 0.21309571 -0.1022285 0.28567216 -0.0012554945 -0.12812564
0.2449332 -0.11587375 0.027183197 -0.23641668 -0.10717516 -0.26711786 -0.24942322 -0.28496104
-0.13512792 0.24601842 -0.27693614 0.2636073 0.29369006 -0.084183596 0.28942192 0.13068423
0.096080504 0.14109574 0.05306343 0.11153439 0.24490331 0.09551575 -0.15856592 0.007597124
-0.007629536 -0.20256035 -0.1820965 -0.13330323 -0.114240505 -0.27833953 -0.03749364 -0.13754982
0.13030295 -0.26545036 -0.0068311323 -0.02720031 0.03159521 0.023600204 -0.18952948 -0.029067809
0.24976352 0.17815247 0.26483613 -0.27610257 0.013140778 0.17259797 -0.08686182 0.29466015
0.26016918 -0.00012187431 -0.008043196 0.009494913 0.12918286 -0.069086894 -0.09487639 -0.25859797
0.07472105 0.26868507 0.29934484 0.23445505 -0.2627365 -0.13011245 0.04199119 -0.14043196
-0.083669685 0.07126556 0.119509906 -0.12599202 0.24936219 -0.0327983 -0.17268273 0.29496506
-0.2526645 -0.024515357 0.23190318 -0.17504394 0.021421913 -0.12200981 0.012640216 -0.07219974

fc2.bias f4 [32]
00000000: a03f afba 0000 0000 b83f af3a c03f afba
00000010: 463f afba d03f af3a c93f afba d23f afba
00000020: c037 afba 0000 0000 943f afba 4d3f afba
00000030: a63f afba cf3f afba 913f af3a af3f afba
00000040: c53f afba cc3f af3a d23f afba b53f afba
00000050: 5c3f af3a 953f af3a be3f af3a ce3f af3a
00000060: cb3f afba cc3f afba a63f afba 5c3f af3a
00000070: ce3f af3a d03f af3a 933f afba cc3f afba
-0.0013370402 0.0 0.001337043 -0.0013370439 -0.0013370297 0.0013370458 -0.001337045 -0.001337046
-0.0013368055 0.0 -0.0013370388 -0.0013370306 -0.0013370409 -0.0013370457 0.0013370385 -0.001337042
-0.0013370445 0.0013370453 -0.001337046 -0.0013370427 0.0013370323 0.0013370389 0.0013370437 0.0013370456
-0.0013370452 -0.0013370453 -0.0013370409 0.0013370323 0.0013370456 0.0013370458 -0.0013370387 -0.0013370453

fc3.weight f4 [32, 32]
00000000: de2f 3bbe 2537 80bd 413b 3d3c 604e 173e
00000010: f8c4 babd 0756 863e 5045 403e 4f0d c53d
00000020: a72e 073e 4166 8bbd f5ae 8abe b0d5 6fbd
00000030: 6d2b 90be 979a ce3d ce11 89bd 00ca 8e3e
00000040: 02aa 8e3d ffb6 81be 0d39 923e c964 903e
00000050: c4dc a2bc 9fd3 28be 80c3 2f3e 3499 1dbd
00000060: a40b 053e 7c8e e0bd 9d0e 7c3e d45f 2a3e
00000070: d3f4 f53d b05d e4bd d7b9 323e 4577 2c3e
00000080: 50b1 843e 1e5b d6bd 58b9 bc3c 0ff1 003e
00000090: 2f38 713b fdf5 7dbe aa95 d03d c28f 203e
000000a0: 0355 723e 5ba9 1dbd 300d 6fbd 4f1c 663e
000000b0: 88b6 3e3b 34fe 8c3e a6bc 73be 240e 26be
000000c0: e0a7 93be aac5 3f3d 080f ed3d c0d7 edbd
000000d0: 4644 c43c 1fa5 913e 5e50 323e 7b9b 58bd
000000e0: dbe5 70bd 121f 1b3e e79b 4fbe 7f3e 7bbe
000000f0: b952 37be 2e1c 11be f967 eb3d 7a82 8c3e
00000100: 2ac7 55be 28d4 413d 5339 13be fed8 623e
00000110: c7d4 423e 22c4 183e 852c 533e c61f 1dbe
00000120: 973a bebd 9ca1 f8bd 5bb0 bfb9 4767 713e
00000130: 954f 643e ab84 fcbd 20be 31be 7616 873e
00000140: 21ac 21be a601 913e e2b4 49be 3ed0 2e3e
00000150: 6fda 003e 2c2e f4bd 83ab 413e 31e6 cbbd
00000160: 20ea 0c3e 5e1c a2bd 9496 913d ad49 0b3e
00000170: ba0c 57be c863 013e c4a4 953e f440 a83d
00000180: ecd5 7abe 37e5 6c3e eeef 623d 5674 1b3e
00000190: 2be0 033e 63d6 4ebd 6841 8abe 1aa6 64be
000001a0: 1b60 2b3d 1873 6fbd e4ca 8cbe ea36 9bbe
000001b0: 3292 c93d 27de 823e 2e92 d0bc 19b2 6c3c
000001c0: c830 a6bd 188d 4d3d 16d1 eabd 83ab 0a3d
000001d0: 45ed 34bd 7ed6 8ebd 5f33 113e a41f 0f3c
000001e0: 3b5f 80be 848e 4f3e 514d 2f3e aa77 883e
000001f0: 8f29 35bc d566 153e dc90 6e3e 5501 853e
00000200: a18c b03d c757 95be a9d3 823e dc26 74bb
00000210: 8f62 47bd 52ef 3b3e 7133 8b3e fd65 6ebe
00000220: 6774 653e 5067 7fbe 304e 543d 8472 5a3e
00000230: 5531 74be b02f 25bd 86bd 0bbe 0c65 1ebe
00000240: 3fe6 3e3d 46c1 303e 1596 003e b5fe 123e
00000250: 233c e7bd 9b45 edbc 46ee 7cbc 7fc2 96be
00000260: 0a8b a5bb 3ef7 94be dbad 9c3e 181c 7cbe
00000270: c90d a6bd beea 36bc 6fbd 3d3e 9628 3a3c
00000280: 5429 8d3e 887e ab3d 74fd 86bc 5d42 6dbe
00000290: 2839 97bd c408 c83d 3fdc d3bd 258b 683e
000002a0: 92aa fc3b ebc5 083e 17eb 59bd 9e39 3b3e
000002b0: b9f1 94be 824e 72be 0557 1d3e 76c4 81bd
000002c0: 84e9 00be 0ead 313e 20bc 7ebe 2185 423c
000002d0: 86b7 1f3e 476a 7ebe b1bf 8c3e b10d 8d3e
000002e0: a871 3bbd 96b7 41be e55d 8d3e 7f8e b8bd
000002f0: 1733 19bc 417d 4d3e a82c dcbd ed37 ffbc
00000300: 3f36 98be e29b 0abe be47 883d f023 9a3e
00000310: 7430 513e c841 21be dd79 003e 9f8a afbd
00000320: 9879 1b3e 3004 053e 691a 723e 8773 703e
00000330: 758d 10be cbf9 9abe 2894 6abe b617 0dbe
00000340: cd98 6d3d cb35 40be dbde e53c 8025 193e
00000350: e7d7 97be f5ca 71be 4227 0cbe be52 fdbd
00000360: c629 273e bc1a 783c c644 bebd 384f 823d
00000370: 8904 423d 1271 c83d b7ec 29be 3ab4 c63d
00000380: 0f8e 843d 9dbb a93d 30c4 2cbd 9308 71bb
00000390: 8e62 833d 6e5c 83be a0dc 843e c820 4ebd
000003a0: 6db0 cbbd b642 5cbe f7c9 2bbe cc1f 763e
000003b0: 7b64 683e 7736 9bbe bf3c 82be a060 24be
000003c0: ad6a a53d 2051 bb3d 9907 9a3d 6473 efbd
000003d0: 211e 38bd 05c3 98be 7fc1 323d a1cb 7cbe
000003e0: a793 4e3e b221 7e3c a13d 2c3e 3fa8 f23d
000003f0: b343 4e3e 9c86 1e3e 1d33 61bd df92 cfbd
-0.18279979 -0.06260518 0.011549772 0.14775991 -0.091196 0.2623751 0.1877644 0.09621679
0.1320139 -0.06806613 -0.27086607 -0.058553398 -0.2815813 0.100880794 -0.06692849 0.2788849
0.0696602 -0.25334927 0.2855915 0.28201893 -0.01988066 -0.16486977 0.17164421 -0.038476184
0.12992722 -0.10964677 0.2461495 0.16638118 0.12009587 -0.11150682 0.17453705 0.16842373
0.2591653 -0.10466598 0.023037598 0.12591957 0.003680717 -0.24800868 0.10184796 0.15679839
0.23665242 -0.038491588 -0.058362186 0.22471736 0.0029100496 0.27537692 -0.23802432 -0.16216332
-0.28839016 0.046819367 0.115751326 -0.11613417 0.023958337 0.2844629 0.1741347 -0.052882653
-0.058812957 0.15148571 -0.20274316 -0.24535559 -0.1790265 -0.14170906 0.114944406 0.27443296
-0.20876756 0.04732147 -0.14377336 0.22153088 0.1902648 0.14918569 0.20622452 -0.15344152
-0.09288519 -0.121401995 -0.00036561754 0.23574553 0.22295983 -0.12329992 -0.17357683 0.26384324
-0.15788318 0.2832157 -0.19697908 0.17071626 0.12583326 -0.11922869 0.18913083 -0.09956015
0.13761187 -0.07915567 0.071087986 0.13602324 -0.21000949 0.1263572 0.2922727 0.08215514
-0.24495667 0.23134314 0.055404596 0.15181097 0.12878482 -0.050497424 -0.27003026 -0.22328988
0.0418397 -0.05845937 -0.27498543 -0.30315334 0.09842338 0.25560114 -0.025460329 0.014446759
-0.08114773 0.050183386 -0.11465661 0.033854973 -0.04417159 -0.06974505 0.14179753 0.008735571
-0.25072655 0.20269209 0.17119338 0.26653796 -0.011057272 0.14590009 0.23297447 0.2597758
0.08620573 -0.2916853 0.2555211 -0.0037254607 -0.048677977 0.18353012 0.27187684 -0.23281093
0.22407685 -0.24941754 0.051832378 0.21332747 -0.23846944 -0.04032868 -0.13646516 -0.15468234
0.0466063 0.17261228 0.12557252 0.14354976 -0.11290767 -0.028963855 -0.015437668 -0.29445264
-0.005051975 -0.2909488 0.3060139 -0.24620092 -0.08108098 -0.011164365 0.18529294 0.0113622155
0.27570593 0.08373743 -0.016478278 -0.23169847 -0.073839486 0.09767297 -0.10344743 0.2270933
0.0077107633 0.1335675 -0.053202715 0.18283698 -0.2909067 -0.23662761 0.15365227 -0.063363
-0.12589079 0.17351171 -0.24876451 0.011872561 0.15597352 -0.24845229 0.2749 0.27549508
-0.045762688 -0.18917689 0.27610698 -0.09011554 -0.00935056 0.20067312 -0.10750705 -0.031154597
-0.29728886 -0.13536027 0.06654309 0.30105543 0.2042864 -0.1574775 0.12546487 -0.08571362
0.15183103 0.12989879 0.23642887 0.2348157 -0.14116462 -0.30268702 -0.2290808 -0.13778576
0.05800705 -0.1877052 0.028060367 0.14955711 -0.29656908 -0.23612578 -0.1368685 -0.123692974
0.16324529 0.015143093 -0.09290461 0.06362766 0.047367606 0.097871915 -0.16594206 0.09702344
0.06472408 0.082877375 -0.042179286 -0.0036778792 0.06415282 -0.25656456 0.25949574 -0.05032423
-0.0994576 -0.21509823 -0.16776262 0.24035567 0.2269458 -0.3031499 -0.2543697 -0.16052485
0.080769874 0.09146333 0.075209804 -0.11691931 -0.04495061 -0.29836288 0.043641564 -0.24687053
0.20173512 0.015510963 0.16820385 0.11848497 0.20143013 0.15481037 -0.054980386 -0.10135435

fc3.bias f4 [32]
00000000: 0000 0000 d23f afba c63f af3a cd3f af3a
00000010: c33f afba cc3f af3a cb3e afba c83f af3a
00000020: cc3f afba cd3f afba 0000 0000 0000 0000
00000030: d03f afba 0000 0000 7c3e afba 0000 0000
00000040: ab3f afba 0000 0000 b23f af3a 0000 0000
00000050: a63f af3a be3f af3a d23f afba d23f af3a
00000060: 0000 0000 0000 0000 c23f afba d23f af3a
00000070: c13f afba d23f afba d03f af3a 0000 0000
0.0 -0.001337046 0.0013370446 0.0013370455 -0.0013370443 0.0013370453 -0.0013370154 0.0013370449
-0.0013370453 -0.0013370455 0.0 0.0 -0.0013370458 0.0 -0.0013370062 0.0
-0.0013370415 0.0 0.0013370423 0.0 0.0013370409 0.0013370437 -0.001337046 0.001337046
0.0 0.0 -0.0013370442 0.001337046 -0.001337044 -0.001337046 0.0013370458 0.0

Pi.weight f4 [2, 32]
00000000: bbe2 803e ec00 b7bd 59ad 2abd 29c1 2cbe
00000010: 280c 80be 3a10 b03e 9d9c 2bbe 6a5a af3e
00000020: 72bd 59be 3d8e 323e 6362 ce3d 2bb6 c73d
00000030: 1142 d0be 3e71 60be 58f6 db3d 2f1c cebe
00000040: 84c2 be3e 5cd9 133d a63f 90be a7a1 d63d
00000050: a87d c03e 5277 1ebe db51 8d3e e629 873e
00000060: 4917 233e f727 b53e f47b cb3e 255a 4fbe
00000070: 17b6 abbc cd6c 4e3d ea1b 36be 1f19 f03c
00000080: aade 843e 60d1 a83d c71e 11bd 54cf babe
00000090: b793 a73b 3fc6 c13e 7be0 5ebe 9cee 273e
000000a0: 6d1a 7d3e 80f8 973e f2c5 cc3e b955 393e
000000b0: be8c aebe 4ec9 8c3e 3c12 bfbe 4a34 c2be
000000c0: 173c 663e cbc0 25be 5618 90bd 3e5e b53e
000000d0: 73d6 ecbd 9ba9 86be 7054 923e 7159 9e3e
000000e0: 2e99 e1bd c94a 71bd 3c57 94be 7131 c63e
000000f0: f2d8 ba3c 56d2 123e 3eec c13d fce6 cabe
0.25172982 -0.08935723 -0.041669223 -0.1687056 -0.25009274 0.3438738 -0.16758962 0.34248668
-0.21263674 0.17437072 0.100773595 0.09751543 -0.40675405 -0.21918198 0.10740346 -0.40255877
0.3725778 0.036095962 -0.2817356 0.104800515 0.37595868 -0.15475205 0.27601513 0.26399153
0.15926851 0.35382053 0.39743006 -0.20249231 -0.02096085 0.05039673 -0.17784086 0.029308854
0.2595113 0.0824306 -0.035429742 -0.36486304 0.0051140445 0.37846562 -0.2176532 0.16399616
0.24717112 0.29681778 0.3999477 0.18099107 -0.34091753 0.27497333 -0.373186 -0.37930518
0.2248386 -0.16186826 -0.07035892 0.35423464 -0.115643404 -0.26301274 0.28580046 0.30927613
-0.11015545 -0.05890921 -0.28972805 0.38709596 0.022808526 0.1433805 0.09468888 -0.39629352

Pi.bias f4 [2]
00000000: c13f af3a c23f afba
0.001337044 -0.0013370442

V.weight f4 [1, 32]
00000000: 618c 1bbe 9a39 d3be 2c5d 9e3d 82de 2d3e
00000010: 74d6 87be a669 283e 7d14 20be 5d58 923d
00000020: a64b d8bd dcc6 05be d3f5 57bd b7c4 6fbe
00000030: e658 87be f7de 5d3e bc82 063e 3573 633e
00000040: 3c7c 833e 0c80 013e ea2f 55be 4ec9 bdbe
00000050: 2dd8 3d3e 2b16 d43e 724d b9be 843a ab3e
00000060: 8dbe 903e eda1 0cbb f224 05be 1235 c13e
00000070: fa83 763e 52e8 c0be 1c51 643e 4070 8e3d
-0.15190269 -0.41254884 0.07732615 0.16979411 -0.26530802 0.16446552 -0.15632816 0.0714576
-0.10561304 -0.1306414 -0.05272467 -0.23414885 -0.26435012 0.21667086 0.13135809 0.22211917
0.2568072 0.12646502 -0.20819059 -0.37067646 0.18539496 0.41423163 -0.361919 0.3344308
0.2827038 -0.002145882 -0.13002375 0.37735802 0.24073783 -0.37677246 0.22296566 0.06955004
