Model_save.model (torch, 10655 bytes, 6 tensors)

fc1.weight f4 [32, 29]
-5.29128 -0.06601652 -0.74294764 1.1355687 2.359911 0.16414809 -0.029526204 0.21431962
0.17638724 0.025476089 -0.036926698 0.09208626 0.040279437 0.017715694 0.03832575 -0.07851797
0.017205313 0.14999005 -0.17996638 0.06310231 0.20034021 -0.11376325 -0.028112622 0.08139058
0.11065493 -0.03438807 -0.17949206 -0.17438576 -0.13134645 0.33063552 0.27557516 0.24211605
-0.07116773 -0.21805017 0.092690855 -0.15220316 0.34890458 -0.022909008 -0.17422836 0.0490584
-0.082258075 -0.055615824 0.06374412 -0.17846344 -0.06808921 -0.32471758 0.10587158 -0.19428708
0.8076478 0.0479758 -0.1857523 -0.010550821 -0.12572187 -0.12608638 0.10335602 -0.24550916
-0.07867843 -0.25984442 -1.50338 -0.78171015 -2.1500382 2.6664596 -1.5365651 0.051518925
0.05448376 0.04925993 -0.048505183 -0.018362625 0.03058877 -0.021168916 -0.018114518 0.04179031
0.06718299 0.017512249 0.017738221 0.03444602 0.09654729 0.081784986 -0.15994953 -0.08739466
0.04666823 -0.16857147 -0.004419983 0.034705814 0.015874302 0.002223374 0.048807804 0.5860032
1.2526585 0.83459485 0.037419938 0.9659394 -0.0075305086 0.0624345 -0.019451872 -0.089373186
-0.071822666 -0.06401528 -0.030729309 -0.045350015 0.0541587 -0.0338441 0.0014743209 0.020606145
-0.43152767 -0.3651129 -0.2690956 -0.20540412 -0.55213356 -0.2814627 -0.8987834 -0.73379767
-0.5863698 -0.52515453 -0.47992292 -0.33494362 -0.8733148 -0.34380087 -0.17196502 0.10855428
-0.090606645 0.020538924 -0.09892868 0.14665745 0.5001356 0.12427366 0.008844476 -0.61968714
0.011571153 -0.06341715 0.05154685 -0.09053922 0.07001027 -0.008910802 0.058232203 0.20173311
0.37641388 0.111100085 -0.1291325 -0.4691045 0.07005475 -0.052609578 0.02351128 -0.031386014
0.07664544 0.5279477 1.5463309 -1.1561248 -0.08950877 -0.043343194 0.216746 0.08458538
0.04433615 0.16840471 -0.08776475 -0.16167912 -0.08493472 -0.23237315 -0.2415517 -0.23178506
0.051831607 -0.07849218 0.5181041 0.016292905 0.06832636 0.38449135 -0.24486433 -0.19314203
-0.13345179 -0.4265592 -0.08715547 -0.08518186 0.008986446 -0.12753555 -0.089828335 -0.3044758
-0.24581683 -0.24768846 -0.26725587 -0.13545494 -0.05146701 0.09404029 0.04698081 -0.36170885
-0.25223094 -0.12741059 0.48017687 -0.048020974 0.10209404 -0.010991809 -0.07475162 -0.064244054
0.0056410343 0.0008923649 0.063479856 -0.3841138 -0.26638106 -0.05460214 0.769821 -0.032344397
0.044429295 0.016462756 -0.089546666 0.21800576 -0.9257576 0.080056965 0.16878974 0.26727206
0.30522773 0.0136486 -0.281602 0.19388108 -0.13619095 0.17972896 -0.20296489 0.10798931
-0.26399264 -0.2346591 -0.0125402035 0.3157851 0.2857334 -0.016806412 -0.38645786 0.27674952
-0.19543643 0.08083936 -0.09952773 0.12151006 -0.19202387 -0.12692063 0.051339373 0.26720288
0.76721907 -4.3031855 -0.35537505 -0.5210071 -0.68975437 0.035808608 0.042313825 0.09598744
-0.0052622156 0.07904159 -0.013153597 0.021184454 0.16108145 -0.25923437 -0.044025537 0.09761365
-0.08019972 0.03133228 0.12164392 0.18927152 -0.016391747 0.00800172 -0.009146523 0.052921847
00000000: 2a52 a9c0 ab33 87bd d131 3ebf 515a 913f
00000010: c808 1740 7016 283e f0e0 f1bc 9a76 5b3e
00000020: db9e 343e 3bb3 d03c 7340 17bd b997 bc3d
00000030: 0dfc 243d 8120 913c 76fb 1c3d 08ce a0bd
00000040: 28f2 8c3c fe96 193e 1b49 38be c93b 813d
00000050: fc25 4d3e b5fc e8bd 714c e6bc 1bb0 a63d
00000060: 0d9f e23d 81da 0cbd c4cc 37be 2e92 32be
00000070: af7f 06be 0f49 a93e 3018 8d3e 45ed 773e
00000080: 63c0 91bd 8b48 5fbe b4d4 bd3d 25db 1bbe
00000090: 9fa3 b23e acab bbbc eb68 32be 76f1 483d
000000a0: ec76 a8bd 6bcd 63bd 478c 823d 1fbf 36be
000000b0: 5b72 8bbd 6241 a6be 33d3 d83d 31f3 46be
000000c0: 02c2 4e3f 4682 443d da35 3ebe 5add 2cbc
000000d0: 3cbd 00be ca1c 01be 52ac d33d c166 7bbe
000000e0: 2822 a1bd 540a 85be c16e c0bf 281e 48bf
000000f0: 3a9a 09c0 46a7 2a40 2aae c4bf 8205 533d
00000100: 5d2a 5f3d c8c4 493d 5fad 46bd 376d 96bc
00000110: 4d95 fa3c 6f6a adbc e664 94bc 512c 2b3d
00000120: 3c97 893d d975 8f3c bf4f 913c 4517 0d3d
00000130: 96ba c53d e37e a73d cfc9 23be f9fb b2bd
00000140: 3027 3f3d 009e 2cbe 81d5 90bb af27 0e3d
00000150: d30a 823c 07b6 113b b1ea 473d 4e04 163f
00000160: 1d57 a03f 02a8 553f a645 193d ce47 773f
00000170: 7cc2 f6bb 51bb 7f3d 8859 9fbc 4a09 b7bd
00000180: c317 93bd 711a 83bd 08bc fbbc f0c0 39bd
00000190: 83d5 5d3d 1ca0 0abd 003e c13a 38ce a83c
000001a0: 32f1 dcbe 14f0 babe e6c6 89be 7555 52be
000001b0: a058 0dbf e11b 90be ab16 66bf 2ada 3bbf
000001c0: 551c 16bf 8770 06bf 75b8 f5be bb7d abbe
000001d0: 8f91 5fbf ab06 b0be 9917 30be b551 de3d
000001e0: fa8f b9bd 3f41 a83c 1f9b cabd 5f2d 163e
000001f0: e308 003f 3083 fe3d 6ce8 103c d1a3 1ebf
00000200: ef94 3d3c dae0 81bd ca22 533d a06c b9bd
00000210: 8b61 8f3d 9dfe 11bc e484 6e3d 2093 4e3e
00000220: 52b9 c03e 7188 e33d 4f3b 04be 772e f0be
00000230: dd78 8f3d 247d 57bd ba9a c03c 9f8e 00bd
00000240: 49f8 9c3d 9527 073f 2cee c53f e6fb 93bf
00000250: 6050 b7bd a288 31bd aaf2 5d3e 1a3b ad3d
00000260: d399 353d 4972 2c3e 01be b3bd 368f 25be
00000270: 41f2 adbd 3af3 6dbe 5459 77be 1059 6dbe
00000280: 614d 543d 82c0 a0bd 78a2 043f b378 853c
00000290: b1ee 8b3d 0ddc c43e b7bd 7abe 06c7 45be
000002a0: 96a7 08be f865 dabe 917e b2bd d473 aebd
000002b0: e33b 133c ae98 02be ebf7 b7bd 41e4 9bbe
000002c0: 68b7 7bbe 0ba2 7dbe c3d5 88be b3b4 0abe
000002d0: 12cf 52bd 3298 c03d f36e 403d e731 b9be
000002e0: 6a24 81be ec77 02be bed9 f53e a4b1 44bd
000002f0: ae16 d13d fd16 34bc 6117 99bd 6392 83bd
00000300: 6dd8 b83b 98ed 693a ba01 823d 90aa c4be
00000310: 1963 88be 7ea6 5fbd fd12 453f 8f7b 04bd
00000320: 7efb 353d e7dc 863c 3e64 b7bd e73c 5f3e
00000330: 73fe 6cbf e8f4 a33d 38d7 2c3e e2d7 883e
00000340: cf46 9c3e 619e 5f3c 232e 90be c388 463e
00000350: a475 0bbe de0a 383e 07d6 4fbe 8029 dd3d
00000360: 0b2a 87be 7a4a 70be 6d75 4dbc 96ae a13e
00000370: a64b 923e 9aad 89bc cedd c5be 1db2 8d3e
00000380: 7d20 48be 1b8f a53d 32d5 cbbd 44da f83d
00000390: e8a1 44be 7bf7 01be 3c49 523d d1ce 883e
000003a0: 7868 443f b2b3 89c0 b8f3 b5be b960 05bf
000003b0: be93 30bf 0cac 123d 4351 2d3d 1095 c43d
000003c0: aa6e acbb 8fe0 a13d 2f82 57bc 058b ad3c
000003d0: 89f2 243e 5eba 84be 1f54 34bd aae9 c73d
000003e0: c03f a4bd 4756 003d 7320 f93d 65d0 413e
000003f0: fc47 86bc a519 033c 4cdb 15bc 94c4 583d

fc1.bias f4 [32]
-0.15319754 -0.014388211 -0.28494453 -0.91066694 -0.33335266 0.21534277 -0.790864 0.068517625
-1.1769545 0.8902954 0.86137474 -0.6727128 0.04630379 0.0952885 -1.0321797 0.59940434
0.15157929 0.1455147 0.29047507 0.92271495 0.42334694 1.0832591 2.6661358 0.2623663
0.57527936 1.0844841 0.22340587 -0.3094911 1.6518396 -1.8107765 1.3688518 -0.39148197
00000000: d1df 1cbe 88bc 6bbc 40e4 91be 7821 69bf
00000010: 33ad aabe d182 5c3e 1076 4abf f852 8c3d
00000020: 72a6 96bf 66ea 633f 0e83 5c3f e836 2cbf
00000030: 0ba9 3d3d 9e26 c33d 771e 84bf 9072 193f
00000040: 9a37 1b3e ce01 153e 26b9 943e 0c37 6c3f
00000050: eec0 d83e 3ca8 8a3f f8a1 2a40 e054 863e
00000060: 8245 133f 60d0 8a3f 82c4 643e 9e75 9ebe
00000070: 7b6f d33f 86c7 e7bf 8936 af3f 5370 c8be

fc2.weight f4 [32, 32]
0.11159286 0.37297922 0.08069659 -0.18120353 0.08914717 0.05383217 0.025941428 0.23773642
0.07406047 -0.09868721 -0.005115545 0.5288834 0.7617214 0.37641633 0.44200307 0.35392103
0.16503532 0.4245695 0.17856976 0.13171202 0.3753403 0.12945865 0.3902319 0.29936418
-0.03970154 0.18731444 0.16088656 0.090137236 0.3104054 0.06706258 -0.070483744 0.050247096
-0.0807368 -0.098655805 -0.076802924 0.0813819 0.02221286 -0.1480763 -0.15403193 -0.06872999
0.080101766 -0.05203255 -0.044107933 -0.14312837 -0.010819117 0.05171294 0.0048986403 0.09569517
-0.025845764 -0.16723685 0.16275083 -0.15481693 -0.17300236 0.046223227 0.11190853 -0.06876033
-0.047068346 -0.118321896 -0.05841901 0.110447615 -0.09141886 0.15897731 -0.16776147 -0.095888115
0.23732454 0.37321007 0.27272174 -0.05501237 0.16967049 0.24499649 0.1922835 0.12361705
0.07789806 0.05440623 -0.19811398 0.58806616 0.69227034 0.24065274 0.24766327 0.35558242
0.2770418 0.361371 0.27458274 -0.05630373 0.3123415 0.18640867 0.16744292 0.17272192
0.21818382 0.17563792 0.20115073 0.00559659 0.061051697 0.092638455 0.076187484 0.24680358
-0.15482089 0.5041111 -0.018739685 0.16663998 0.17839009 0.39488038 0.4657135 0.014977623
0.33053166 -0.23182923 0.5248623 -0.34336305 -0.27950615 0.14630339 0.6412633 -0.29007652
0.54131615 -0.50606304 0.18288697 -0.05629457 0.2247904 -0.0046778126 -0.9408584 -0.10904965
0.09557587 0.017713029 1.053925 0.013912022 -0.22394703 0.3361149 -0.7569883 0.5896992
-0.33243993 -0.06615623 -0.482734 -1.577144 0.18894906 -0.010414624 0.32352144 0.33357865
0.0035627738 -0.45815983 -0.03841195 -0.023286322 -1.053703 0.24356396 0.2215622 0.17394044
0.13856071 0.1729584 0.04954351 0.17732579 0.08300779 -0.48490372 -0.79614156 0.2674795
-0.07764101 0.20491445 0.08415103 -1.2961 0.36008835 0.17543195 -0.3660942 -0.50128794
0.24148194 0.37964308 0.5542041 -0.60039854 0.326917 0.11210353 0.14484394 -0.010961471
0.21515639 -0.038389027 0.039485656 0.63397205 0.39380616 0.34594366 0.3318883 0.36543772
0.30176678 0.43977827 0.28995946 0.04603406 0.24435343 0.11977858 0.4323004 0.051780984
0.20654558 0.027504275 0.20566382 -0.1908386 -0.00050138665 -0.02936268 -0.33183652 0.3327452
-0.1409805 -0.19548526 -0.12431982 -1.5375699 0.14700438 0.07636453 0.02866228 0.1728267
-0.085916564 -0.08144823 0.0442064 -0.019353623 -0.4063428 -0.140507 0.07221514 -0.10946201
0.022208352 0.11863246 0.074261695 0.1721732 0.25582162 -0.065889016 0.021464944 0.18214695
-0.07487927 0.2625868 -0.16554296 -0.6590278 0.4054333 -0.012694582 0.06509864 -0.46956316
0.16989419 0.35343215 0.14850017 0.77599686 -0.03125703 0.22801779 -0.028388638 0.26484188
-0.36725026 0.1166861 0.3700732 0.27205166 0.40970007 -0.058941256 -0.0038801965 0.20303369
-0.03816464 0.45857105 0.31540987 0.1955943 -0.12927607 0.13251573 -0.30597046 -0.45381218
-0.008768211 -0.023340661 -0.27322364 0.3131304 -0.28145733 -0.53532076 -0.30966458 1.0260062
00000000: cc8a e43d 22f7 be3e 4144 a53d 6b8d 39be
00000010: cb92 b63d 1f7f 5c3d 1e83 d43c 2d71 733e
00000020: 04ad 973d 851c cabd 4da0 a7bb e764 073f
00000030: 2c00 433f a4b9 c03e 3a4e e23e 2335 b53e
00000040: 05ff 283e 2c61 d93e feda 363e 84df 063e
00000050: 9b2c c03e cf90 043e 7acc c73e 4346 993e
00000060: 159e 22bd 5bcf 3f3e 72bf 243e df99 b83d
00000070: 75ed 9e3e 1b58 893d c859 90bd e6cf 4d3d
00000080: 5659 a5bd 0e0c cabd da4a 9dbd 8eab a63d
00000090: bef7 b53c 50a1 17be 8cba 1dbe 4fc2 8cbd
000000a0: 650c a43d 1520 55bd 85aa 34bd 3e90 12be
000000b0: aa42 31bc f3d0 533d c684 a03b d4fb c33d
000000c0: 7fba d3bc 2340 2bbe 27a8 263e 5488 1ebe
000000d0: 8827 31be 9154 3d3d 4d30 e53d 37d2 8cbd
000000e0: bdca 40bd c052 f2bd c648 6fbd 5c32 e23d
000000f0: d039 bbbd f3ca 223e aac9 2bbe fd60 c4bd
00000100: 3405 733e 6415 bf3e 2fa2 8b3e a754 61bd
00000110: 1abe 2d3e 5ce0 7a3e f7e5 443e f02a fd3d
00000120: 0589 9f3d 11d9 5e3d 64de 4abe 818b 163f
00000130: a138 313f ac6d 763e 719b 7d3e e60e b63e
00000140: 6cd8 8d3e 9f05 b93e 1c96 8c3e bd9e 66bd
00000150: 3aeb 9f3e eae1 3e3e 2876 2b3e 04de 303e
00000160: 946b 5f3e 6dda 333e 75fa 4d3e 9a63 b73b
00000170: 5811 7a3d 3bb9 bd3d 2f08 9c3d 14ba 7c3e
00000180: 5e89 1ebe 6d0d 013f f883 99bc aca3 2a3e
00000190: e4ab 363e c32d ca3e 0072 ee3e b464 753c
000001a0: 723b a93e a464 6dbe 605d 063f 48cd afbe
000001b0: 6e1b 8fbe 8ed0 153e d529 243f e984 94be
000001c0: b293 0a3f 598d 01bf b946 3b3e 2395 66bd
000001d0: 742f 663e 5648 99bb 19dc 70bf 6c55 dfbd
000001e0: 48bd c33d ea1a 913c 04e7 863f 40ef 633c
000001f0: 5f52 65be 4117 ac3e fcc9 41bf 87f6 163f
00000200: 9135 aabe eb7c 87bd e928 f7be dbdf c9bf
00000210: dd7b 413e 19a2 2abc 9aa4 a53e d2ca aa3e
00000220: 6d7d 693b ed93 eabe d955 1dbd f5c2 bebc
00000230: bddf 86bf d568 793e 34e1 623e 711d 323e
00000240: dce2 0d3e 021c 313e 23ee 4a3d e494 353e
00000250: fdff a93d 4d45 f8be efcf 4bbf 13f3 883e
00000260: 4002 9fbd 18d5 513e 6057 ac3d 9be6 a5bf
00000270: 805d b83e 6fa4 333e b370 bbbe 6854 00bf
00000280: 0b47 773e 9460 c23e 52e0 0d3f b8b3 19bf
00000290: aa61 a73e 8996 e53d f851 143e be97 33bc
000002a0: f551 5c3e d03d 1dbd b6bb 213d fe4b 223f
000002b0: f6a0 c93e 871f b13e 43ed a93e a71a bb3e
000002c0: 2d81 9a3e 9e2a e13e 9175 943e 368e 3c3d
000002d0: c937 7a3e 794e f53d 7a56 dd3e 4c18 543d
000002e0: af80 533e a550 e13c 8999 523e 326b 43be
000002f0: 7d6f 03ba 018a f0bc 7ae6 a9be 945d aa3e
00000300: 315d 10be 4a2d 48be 649b febd 17cf c4bf
00000310: 5188 163e 0265 9c3d 28cd ea3c 7cf9 303e
00000320: 06f5 afbd 54ce a6bd c511 353d 7d8b 9ebc
00000330: 2a0c d0be 11e1 0fbe 88e5 933d 9e2d e0bd
00000340: 4aee b53c 93f5 f23d 8416 983d 2c4e 303e
00000350: 0dfb 823e d2f0 86bd 40d7 af3c bb84 3a3e
00000360: 4d5a 99bd c771 863e 1884 29be 0cb6 28bf
00000370: f494 cf3e f0fc 4fbc 7052 853d 956a f0be
00000380: bef8 2d3e 0ff5 b43e 6e10 183e bba7 463f
00000390: 5f07 00bd 7f7d 693e 4a8f e8bc 5b99 873e
000003a0: 3a08 bcbe 1ff9 ee3d 3c7a bd3e 5b4a 8b3e
000003b0: 35c4 d13e 636c 71bd e54a 7ebb 10e8 4f3e
000003c0: 8752 1cbd d3c9 ea3e 677d a13e df49 483e
000003d0: f260 04be 34b2 073e 29a8 9cbe 125a e8be
000003e0: 8ba8 0fbc ea34 bfbc f8e3 8bbe a152 a03e
000003f0: 2d1b 90be c80a 09bf 5b8c 9ebe 2c54 833f

fc2.bias f4 [32]
0.17311445 -0.20597406 -0.07714518 -0.9962522 -0.124942794 -0.10383969 0.49148944 0.5371322
0.12191836 1.0868051 -0.37352288 0.008983005 0.3017376 0.24877296 0.68940556 0.33372658
0.064682774 0.8118405 0.4468163 0.09455644 0.6008832 0.05984213 -0.8207912 0.36742657
-0.6038459 -0.25881734 0.43925244 -1.1121311 0.5691099 -1.0874044 0.008754547 -0.3088283
00000000: ea44 313e ddea 52be 4bfe 9dbd 620a 7fbf
00000010: 02e2 ffbd e7a9 d4bd 81a4 fb3e 7f81 093f
00000020: 55b0 f93d 6e1c 8b3f 643e bfbe 742d 133c
00000030: 5a7d 9a3e 57be 7e3e e27c 303f 36de aa3e
00000040: 6778 843d c7d4 4f3f 1bc5 e43e cfa6 c13d
00000050: 7bd3 193f 051d 753d 5f1f 52bf 561f bc3e
00000060: a595 1abf b583 84be b2e5 e03e 505a 8ebf
00000070: 30b1 113f 1130 8bbf 3b6f 0f3c be1e 9ebe

fc3.weight f4 [2, 32]
-0.17023644 0.029345198 -0.18774931 -0.46338072 -0.32058275 -0.27109113 0.005533223 0.05067301
1.9161856 -0.40126678 0.00687099 -0.20741421 0.2764918 -0.21552844 -0.115009956 -0.14698327
-0.34425157 0.24433699 -0.24528569 -0.85915846 -0.51513624 0.30774942 -0.5087593 -0.09006406
-0.23149887 -0.25122052 0.42612457 -0.721672 -0.8334629 -0.58498675 -0.26173288 0.056592785
-0.27408054 -0.1790632 -0.20943837 -0.3834486 -0.51642084 -0.18423712 -0.27473012 -0.60011256
1.3455437 -0.38795486 0.4153903 0.112124614 0.035516065 -0.3294301 -0.4707667 -0.3593261
-0.28956506 -0.56922436 -0.061918017 0.20168371 -0.40381107 0.1276166 -0.15684567 -0.371775
0.10395783 -0.1675742 -1.0214945 -0.56248385 -0.7946008 -0.42894292 -0.3211437 0.5423794
00000000: 7652 2ebe 5765 f03c 5b41 40be 3d40 edbe
00000010: 6c23 a4be 75cc 8abe 0a50 b53b 818e 4f3d
00000020: 9245 f53f d772 cdbe 0b26 e13b 6464 54be
00000030: 5590 8d3e 7db3 5cbe 578a ebbd c882 16be
00000040: be41 b0be 7a33 7a3e 2c2c 7bbe cff1 5bbf
00000050: f8df 03bf 5591 9d3e 0d3e 02bf 8273 b8bd
00000060: 0a0e 6dbe fa9f 80be 002d da3e 7fbf 38bf
00000070: d35d 55bf b1c1 15bf da01 86be d6cd 673d
00000080: 4954 8cbe 585c 37be 0377 56be 6053 c4be
00000090: 2834 04bf a8a8 3cbe 6da9 8cbe faa0 19bf
000000a0: c73a ac3f 05a2 c6be 0aae d43e 97a1 e53d
000000b0: 4b79 113d 10ab a8be 5508 f1be 97f9 b7be
000000c0: df41 94be b0b8 11bf bf9d 7dbd 2d86 4e3e
000000d0: 53c0 cebe edad 023e 279c 20be 4b59 bebe
000000e0: d8e7 d43d 9298 2bbe 55c0 82bf f1fe 0fbf
000000f0: f56a 4bbf 689e dbbe f26c a4be 60d9 0a3f

fc3.bias f4 [2]
0.64357203 -0.530827
00000000: 23c1 243f 47e4 07bf
