Model_save.model (torch, 10199 bytes, 6 tensors)

fc1.weight f4 [32, 29]
0	0xc09a7118	-4.8263054
1	0x3e40bc45	0.18821819
2	0xbf95ff57	-1.1718549
3	0x3f9b2664	1.2121091
4	0x402b106b	2.672877
5	0x3d15f115	0.036606867
6	0xbe0fa0e9	-0.14026226
7	0x3e5ccdcc	0.2156288
8	0xbce11b7e	-0.02747893
9	0x3d26e46e	0.04074519
10	0xbb45a16f	-0.0030156036
11	0x3e2700dc	0.16308922
12	0x3d13c1b7	0.036073413
13	0x3ca40191	0.020020278
14	0x3de89d60	0.11358142
15	0xbde49c19	-0.11162586
16	0xbe0a9cb7	-0.13536344
17	0x3e23eed5	0.16009076
18	0xbe207081	-0.15667917
19	0x3c2a1d11	0.0103829065
20	0xbb9e4289	-0.004829709
21	0xbd5559d5	-0.052087624
22	0xbd971865	-0.073777
23	0xbd44c06a	-0.048035063
24	0xbb09715c	-0.0020972108
25	0xbd6954f4	-0.056965783
26	0x3da24f4c	0.07925281
27	0xbdd28b1c	-0.10280439
28	0xbe3b078e	-0.182646
29	0x3e873e52	0.26414734
30	0x3dad77e9	0.08470137
31	0x3f0a90bc	0.541271
32	0x3eddb379	0.4330099
33	0x3e353630	0.17696452
34	0xbd2baf32	-0.041915126
35	0xbea1a993	-0.31574687
36	0x3ed5e61b	0.4177712
37	0x3c83a5fe	0.016070362
38	0xbdbfd333	-0.09366455
39	0xbc2715a0	-0.010198027
40	0xbe0e7ff0	-0.13915992
41	0xbddb105f	-0.10696482
42	0x3dcc1eae	0.09966789
43	0xbd9047ce	-0.07044946
44	0xbe50d30f	-0.20393012
45	0xbe9e8d6f	-0.3096728
46	0x3d820ca1	0.06350065
47	0xbe8b5752	-0.27215058
48	0x3f753bfe	0.95794666
49	0x3d12147c	0.035664067
50	0xbdb97d0e	-0.090570554
51	0xbd55c47a	-0.052189328
52	0xbe4c6c4b	-0.19963185
53	0xbdc37dcc	-0.09545478
54	0x3e308ea0	0.17241907
55	0xbe0c2a52	-0.13688019
56	0xbe65df5a	-0.22448483
57	0xbed9fbb2	-0.4257484
58	0xc04f2f9b	-3.2372806
59	0x3d7765bf	0.060399767
60	0xc032b127	-2.7920625
61	0x402cddba	2.701033
62	0xbf59e6ec	-0.85117984
63	0x3d27f228	0.041002423
64	0x3d82cecc	0.063870996
65	0x3e31ba60	0.17356253
66	0xbda146db	-0.07874843
67	0xbdef9bda	-0.11699648
68	0x3d762785	0.060096283
69	0xbe21e925	-0.15811594
70	0x3d1e590a	0.038659133
71	0xbc8d16e9	-0.017222838
72	0x3d985e6c	0.074398845
73	0x3dade38f	0.08490669
74	0x3e0e928c	0.1392309
75	0xba02407e	-0.00049687165
76	0x3dc1d87f	0.094651215
77	0x3e70b4a0	0.23506403
78	0xbdca686c	-0.09883198
79	0xbe54a429	-0.20765747
80	0x3e1c63a1	0.1527238
81	0xbe5c0d2f	-0.21489404
82	0x3d044b2b	0.03229825
83	0x3cf61ccb	0.030043026
84	0x3d1bd272	0.038042493
85	0x3e0c35b5	0.13692363
86	0x3e51fea8	0.205073
87	0x3f16044e	0.5860032
88	0x3fa6c783	1.3029636
89	0x3f68f0f0	0.9099264
90	0x3d1945a6	0.037419938
91	0x3f9b337d	1.2125088
92	0x3d58e958	0.05295691
93	0x3da2cf56	0.079497024
94	0x3ca7f1b3	0.020500993
95	0xbe075ae3	-0.13218264
96	0xbd9c4ad5	-0.076314606
97	0xbd211bd5	-0.039333183
98	0x3dfcbde5	0.12340907
99	0xbdab04a9	-0.08350498
100	0x3caf5322	0.021401946
101	0x3cdc2a41	0.026875617
102	0x3d2e4c68	0.042553335
103	0x3d8f68a9	0.07002384
104	0xbf29b3c4	-0.66289926
105	0xbef41388	-0.4767115
106	0xbf0638be	-0.5243033
107	0xbec77c6b	-0.3896211
108	0xbf19c2ac	-0.6006267
109	0xbecabbfd	-0.3959655
110	0xbf68e8a1	-0.90979964
111	0xbf323749	-0.6961561
112	0xbf47ecb8	-0.7809558
113	0xbf0a824c	-0.5410507
114	0xbf076fc5	-0.5290492
115	0xbee28b02	-0.4424668
116	0xbe8ac461	-0.2710295
117	0xbe83cfc8	-0.25744462
118	0xbef4fde5	-0.47849956
119	0x3d544755	0.05182584
120	0xbdaea129	-0.085268326
121	0x3d9d8852	0.07692017
122	0x3d5697f9	0.052391026
123	0xbd0c9a0b	-0.034326594
124	0x3f3ff045	0.74976
125	0x3d1540c9	0.036438737
126	0xbd58125b	-0.05275188
127	0xbf3ac095	-0.72950107
128	0x3dfbc4ce	0.12293397
129	0xbd614dcc	-0.055005834
130	0x3cd073ca	0.025445838
131	0xbbd9adb5	-0.006643022
132	0x3cab1071	0.020881863
133	0xbd7121b9	-0.05887005
134	0x3cf297d6	0.029613417
135	0xbd1eb2ac	-0.038744614
136	0x3ee708fb	0.4512404
137	0xbc0bc42c	-0.008530658
138	0xbdbf6e1a	-0.09347172
139	0xbf21529b	-0.6301667
140	0x3d9c2ab9	0.07625336
141	0xbe030f42	-0.12798789
142	0x3d9421b4	0.07232991
143	0x3cfdff88	0.031005636
144	0x3d4124d1	0.04715425
145	0x3f074c0c	0.52850413
146	0x402c02c5	2.687669
147	0xc05a7657	-3.413473
148	0x3ea1ddc3	0.31614503
149	0x3ec4a143	0.38404283
150	0x3e5bcf39	0.21465768
151	0x3ae12471	0.0017176998
152	0x3cca2009	0.024673479
153	0xbd6dd685	-0.05806591
154	0xbd8bceb8	-0.06826538
155	0xbe0e86b2	-0.1391857
156	0xbd3f83df	-0.04675662
157	0xbdbef692	-0.09324373
158	0x3c92c10d	0.01791432
159	0xbc8264ad	-0.015917147
160	0x3d089bd0	0.03335172
161	0xbaa11eb7	-0.0012292479
162	0x3f0d801e	0.55273616
163	0xbc9ecdff	-0.019385336
164	0x3d4a7baf	0.04943436
165	0x3d72e23b	0.05929778
166	0xbd6d03f1	-0.057865087
167	0xbe869b8a	-0.26290542
168	0xbddf58e5	-0.10905627
169	0xbe1e2e1f	-0.15447281
170	0x3dbe55c1	0.092937
171	0xbe15c9b2	-0.14627722
172	0xbdc71c7e	-0.09722231
173	0xbde45410	-0.11148846
174	0xbd791540	-0.06081128
175	0x3e21fd7b	0.15819351
176	0x3e36c1c4	0.17847353
177	0xbdf13103	-0.11776926
178	0xbe28abd6	-0.164718
179	0xbe116763	-0.14199595
180	0xbd51b453	-0.05119736
181	0xbbce37d3	-0.006293276
182	0xbd81409c	-0.063111514
183	0xbf027a47	-0.5096783
184	0xbebabd9e	-0.3647279
185	0x3d012f0c	0.031539008
186	0x3f19c846	0.6007122
187	0x3d885bbd	0.06658123
188	0x3d806107	0.062685065
189	0xbb53effe	-0.0032339091
190	0xbcbb2f14	-0.022849597
191	0xbd76763e	-0.06017136
192	0xbc1a229c	-0.009407666
193	0xbdacc012	-0.08435072
194	0x3d6f9cf5	0.058499295
195	0xbf1669cd	-0.5875519
196	0xbe305abf	-0.17222117
197	0xbd13f759	-0.03612456
198	0x3f6a7b6d	0.9159458
199	0xbc53d741	-0.0129297385
200	0x3d1925ba	0.037389494
201	0xbc6c7725	-0.014432703
202	0x3d4a9ec0	0.049467802
203	0x3eb23234	0.34803927
204	0xbf0e94d9	-0.55695873
205	0xbd6a43fc	-0.05719374
206	0xbd4c9ba8	-0.049953133
207	0xbd204df1	-0.03913683
208	0x3ef17c6c	0.4716524
209	0xbc80c7ea	-0.015720326
210	0xbe971538	-0.29508376
211	0x3e3b2c2d	0.1827857
212	0xbcae5668	-0.021281436
213	0x3d5097f5	0.050926168
214	0xbe237685	-0.1596318
215	0x3dd541f7	0.104129724
216	0xbe0bc8ca	-0.13650814
217	0xbec903e2	-0.39260775
218	0xbbecb7a3	-0.0072240396
219	0x3e9f63e0	0.31130886
220	0x3ec87736	0.3915345
221	0xbd57f0b1	-0.052719776
222	0xbec611c0	-0.38685417
223	0x3e6c4f90	0.23077226
224	0xbdeb840e	-0.11499797
225	0xbd582063	-0.05276526
226	0xbdc10291	-0.09424318
227	0x3d538b15	0.05164631
228	0xbe827f7c	-0.25487888
229	0xbea3fb1a	-0.32027513
230	0xbd3a98aa	-0.045555748
231	0x3ec6c01b	0.3881844
232	0xbe615ea7	-0.22008763
233	0xc09003a7	-4.500446
234	0xbdf65296	-0.12027471
235	0xbe7fa3ef	-0.2496488
236	0xbe7bb110	-0.24579263
237	0x3d7b6797	0.061378088
238	0xbd2ad6c6	-0.04170873
239	0x3ac15a58	0.0014751656
240	0xbe216b00	-0.15763474
241	0x3e46aa98	0.19401014
242	0xbe9d023e	-0.30665773
243	0xbda9687b	-0.08271881
244	0xbd56bee2	-0.052428134
245	0xbf55ca6d	-0.83512
246	0xbd85ce86	-0.06533532
247	0xbde7f3bd	-0.11325786
248	0xbc3e3a12	-0.011610525
249	0x3d121498	0.03566417
250	0xbdeda578	-0.11603826
251	0xbd1cd20b	-0.03828625
252	0xbd953931	-0.07286299
253	0x3e6a97c5	0.22909458
254	0xbefb696f	-0.49103877
255	0x3d93b189	0.072115965

fc1.bias f4 [32]
0	0x3d998c51	0.07497466
1	0x3ea536ef	0.32268474
2	0x3e899421	0.26870826
3	0xbf8da83f	-1.106697
4	0xbe5cdb5e	-0.21568057
5	0x3f0f4613	0.559663
6	0xbf0c112f	-0.5471372
7	0xbdcefba7	-0.101065926
8	0xbfa5e1f1	-1.2959577
9	0x3f8ecf79	1.1157066
10	0x3f6728a7	0.90296406
11	0xbf1fccbc	-0.62421775
12	0x3d65d8bd	0.0561149
13	0x3e839197	0.25697014
14	0xbf66eef0	-0.9020834
15	0x3f3f0a63	0.74625224
16	0x3eacad1c	0.33725822
17	0xbe56ab2a	-0.20963731
18	0x3f0739c6	0.5282253
19	0x3f673975	0.9032205
20	0x3f1db821	0.61609083
21	0x3f729c26	0.94769514
22	0x4045a1bb	3.0879962
23	0x3eb9180f	0.36151168
24	0x3f69d754	0.9134419
25	0x3fb0cce6	1.381253
26	0x3eacfcc9	0.3378661
27	0xbe990775	-0.29888502
28	0x3fe862f9	1.8155204
29	0xc00f1030	-2.235363
30	0x3f7fba07	0.9989323
31	0xbe8449ab	-0.25837454

fc2.weight f4 [32, 32]
0	0x3d981842	0.07426502
1	0x3e996cfa	0.29965955
2	0x3d4288e2	0.047493823
3	0x3f1f48be	0.6222037
4	0x3e0de1f5	0.13855727
5	0xbd42b9ad	-0.047540355
6	0xbc8c33c9	-0.017114537
7	0x3e91efe1	0.28503326
8	0x3e55d7a6	0.20883045
9	0xbd9c038e	-0.076178655
10	0x3c2ee82d	0.010675472
11	0x3ee53fef	0.4477534
12	0x3f45890f	0.7716226
13	0x3ec15d3e	0.3776645
14	0x3ec1aabd	0.37825575
15	0x3ea718cc	0.32636106
16	0x3e22a663	0.15883784
17	0x3e8d2e4a	0.27574378
18	0x3e21efd0	0.15814137
19	0x3e0035c9	0.12520517
20	0x3eada91d	0.33918086
21	0x3dfa25e2	0.12214257
22	0x3f139e9c	0.57663894
23	0x3e8e947a	0.27847654
24	0xbdafe6f1	-0.085889705
25	0x3dc63741	0.096785076
26	0xbc77f7a0	-0.015134722
27	0x3d914fd6	0.070953056
28	0x3e5f6e14	0.21819335
29	0xbc1b9f10	-0.009498373
30	0x3e280273	0.16407184
31	0x3d9c48af	0.07631051
32	0xbd885035	-0.06655923
33	0xbdc4941a	-0.09598561
34	0xbda12eba	-0.078702405
35	0x3dad57aa	0.08463986
36	0x3d214d4a	0.03938035
37	0xbe1dc146	-0.15405759
38	0xbe193006	-0.14959726
39	0xbd5e8a15	-0.054330904
40	0x3da40c65	0.080101766
41	0x3ab28461	0.0013619774
42	0xbcc3db6b	-0.023908338
43	0xbe220d2b	-0.15825336
44	0xbc3142aa	-0.010819117
45	0x3da44a20	0.08021951
46	0x3d2f907c	0.0428624
47	0x3df95baa	0.12175687
48	0xbc2250ce	-0.009906961
49	0xbde94324	-0.11389759
50	0x3e43a087	0.19104205
51	0xbdf27c65	-0.118401326
52	0xbe0ba7ea	-0.13638273
53	0x3d4d6c57	0.05015215
54	0x3dfebb3a	0.124380544
55	0xbd5d12de	-0.05397307
56	0x3c9a9f1d	0.0188747
57	0xbe071e54	-0.13195163
58	0xbcda95f7	-0.026682837
59	0x3de2325c	0.110447615
60	0xbe18d552	-0.14925125
61	0x3e4766de	0.19472834
62	0xbe2bc9aa	-0.16776147
63	0xbd87b0fe	-0.066255555
64	0x3e442316	0.19154009
65	0x3ea0e4af	0.31424472
66	0x3e79dd20	0.24400759
67	0x3f6c2d53	0.9225666
68	0x3e5653f1	0.20930459
69	0x3e4150d1	0.18878485
70	0x3d947405	0.072486915
71	0x3e220ad8	0.15824449
72	0x3e5c9845	0.21542461
73	0x3dbf9f69	0.09356577
74	0xbe61ed3e	-0.22063157
75	0x3f000343	0.50004977
76	0x3f33c150	0.70216846
77	0x3e772419	0.24134864
78	0x3e2f5704	0.17123038
79	0x3eab1aac	0.33418787
80	0x3e8fdc02	0.2809754
81	0x3e8d4d85	0.27598205
82	0x3e6bd7e8	0.2303158
83	0xbda05e92	-0.07830538
84	0x3e873288	0.2640574
85	0x3e4c8cdf	0.19975613
86	0x3ea2d572	0.3180347
87	0x3e181d00	0.14854813
88	0x3e165a05	0.14682777
89	0x3dd3f3f4	0.10349265
90	0x3dac1391	0.084021695
91	0xbc5eb76c	-0.013593536
92	0x3b49a006	0.0030765547
93	0xbcda3b84	-0.026639707
94	0x3e33af0e	0.17547247
95	0x3e7fb700	0.24972153
96	0xbe535370	-0.20637298
97	0x3f1c5e10	0.6108103
98	0xbc6ff8dd	-0.014646736
99	0x3e2aa3ac	0.16663998
100	0x3e1ec750	0.15505719
101	0x3e60bb39	0.2194642
102	0x3e7885e9	0.24269833
103	0xbcab1af7	-0.020886881
104	0x3ed40677	0.41411182
105	0xbe8bba28	-0.27290463
106	0x3f040d0c	0.5158241
107	0xbdf8526e	-0.12125097
108	0xbe8f1b6e	-0.27950615
109	0x3e08ef4c	0.13372535
110	0x3f43327a	0.76248896
111	0xbea8594b	-0.32880625
112	0x3f200f06	0.62522924
113	0xbef04dab	-0.46934256
114	0x3e550b50	0.20805097
115	0x3d8a0d5a	0.06740828
116	0x3e57d9cd	0.21079178
117	0xbcd04496	-0.02542333
118	0xbf687563	-0.9080412
119	0xbe06eb45	-0.13175686
120	0x3c45abee	0.012064917
121	0xbead6143	-0.33863267
122	0x3f5f7748	0.87291384
123	0x3c63ef40	0.013912022
124	0xbe4a4ba2	-0.19755414
125	0x3ee433a2	0.44570643
126	0xbf458d0b	-0.7716834
127	0x3f0f4fff	0.5598144
128	0xbe49117e	-0.19635579
129	0x3e5b36b0	0.2140758
130	0xbe27a824	-0.16372734
131	0xbfc9dfdb	-1.577144
132	0x3ee66620	0.4499979
133	0x3e97dbb2	0.29659802
134	0x3f0349cf	0.512845
135	0x3ee39b43	0.44454393
136	0x3e64e567	0.22353135
137	0xbe7ac096	-0.24487528
138	0xbdaad3ab	-0.08341154
139	0x3e99a459	0.300082
140	0xbf86dfbd	-1.053703
141	0x3ebd374b	0.36956248
142	0x3e9cb96c	0.30610216
143	0x3e84ed29	0.2596219
144	0x3e3ae93c	0.18253034
145	0x3e84ba6d	0.25923482
146	0xbd64d313	-0.05586536
147	0x3e0900c2	0.13379195
148	0x3e287789	0.16451849
149	0xbe910871	-0.28326753
150	0xbfa27e26	-1.2694747
151	0x3e888f7d	0.26671973
152	0xbd41078b	-0.047126334
153	0xbd71d20e	-0.059038214
154	0xbde8ff7e	-0.11376856
155	0xbfa5e69b	-1.2961
156	0x3ed1007f	0.4082069
157	0x3e991f07	0.29906484
158	0xbec77680	-0.38957596
159	0xbedd605b	-0.43237576
160	0x3e52cda8	0.20586264
161	0x3eafe51c	0.34354484
162	0x3f09c8f1	0.5382224
163	0x3eaa0ace	0.33211368
164	0x3ebdcc61	0.3706999
165	0x3de629c1	0.11238433
166	0xbd10748b	-0.035267394
167	0x3cd58028	0.026062086
168	0x3eb5eee7	0.3553383
169	0x3d0fb691	0.03508622
170	0xbbbaaab7	-0.0056966203
171	0x3f0edb64	0.55803514
172	0x3eceb255	0.40370432
173	0x3ebc9c1c	0.36837852
174	0x3e83a678	0.25712943
175	0x3ebd2f49	0.36950138
176	0x3ea60030	0.32422018
177	0x3edeb395	0.43496385
178	0x3e77a88b	0.24185388
179	0x3cd0f889	0.025509136
180	0x3e52d979	0.20590772
181	0x3e2dba83	0.1696568
182	0x3f0fa5ee	0.56112564
183	0x3d2808a5	0.04102387
184	0x3e03d15b	0.12872832
185	0xbd9f9e09	-0.07793815
186	0x3e216ccb	0.15764157
187	0xbe5719bb	-0.21005909
188	0xbbfc8ccf	-0.0077072154
189	0xbe317cc2	-0.17332748
190	0xbeee3d81	-0.465313
191	0x3ea58895	0.32330766
192	0x3e18a9f2	0.14908579
193	0xbf02b0cd	-0.51051027
194	0xbde9c563	-0.11414602
195	0xbfb31e3c	-1.3993602
196	0x3d35725e	0.044298522
197	0xbd8b9ac1	-0.06816626
198	0x3d768c0c	0.060192153
199	0x3d633017	0.055465784
200	0x3c6dc9a7	0.01451341
201	0xbb301fd2	-0.0026874435
202	0x3f0b524e	0.5442246
203	0xbe9181c1	-0.28419307
204	0xbecafa8f	-0.39644286
205	0xbdcb5460	-0.09928203
206	0xbd43dd1a	-0.04781828
207	0xbf12e8ba	-0.5738636
208	0x3dbad7cd	0.09123192
209	0xbe914836	-0.28375405
210	0xbed0d50e	-0.40787548
211	0x3dd365df	0.10322165
212	0x3e720385	0.23634155
213	0x3e585e40	0.21129704
214	0xbdc8ecdf	-0.098108046
215	0x3df8b72a	0.12144311
216	0x3e2b613b	0.16736309
217	0xbd56e521	-0.052464608
218	0xbec3c7ed	-0.3823847
219	0xbf269088	-0.6506429
220	0x3ef1efb7	0.472532
221	0x3e6ec9e6	0.23319206
222	0xbed4ffbc	-0.4160136
223	0xbea67351	-0.32509854
224	0x3db32431	0.08747137
225	0x3e5fcf6a	0.21856466
226	0x3debd10a	0.115144804
227	0x3e7efa03	0.2490006
228	0xbd10d790	-0.035361826
229	0x3b8b65cb	0.004254078
230	0xbd9e350e	-0.07724963
231	0x3e77afc3	0.24188142
232	0xbe7ca4fe	-0.24672315
233	0x3e0636e6	0.1310688
234	0x3e27e7ac	0.1639697
235	0xbe90e55e	-0.28299993
236	0x3ed1c435	0.40970007
237	0xbdda45b5	-0.10657827
238	0x3dd4870c	0.10377321
239	0x3e56ac70	0.20964217
240	0x3e817417	0.25283882
241	0x3e9748ef	0.2954783
242	0x3d8625f0	0.06550205
243	0x3e839007	0.25695822
244	0xbe9053ad	-0.2818884
245	0x3d3865b6	0.045018874
246	0xbe4c2ecf	-0.19939731
247	0xbf21e0f2	-0.63233864
248	0x3c3a5b85	0.011374359
249	0x3db607ca	0.088882044
250	0x3d6a3ec9	0.057188783
251	0x3ea052a1	0.3131304
252	0xbf1b9b4c	-0.6078384
253	0xbfaf6830	-1.370367
254	0xbede87cd	-0.43462983
255	0x3f3e0dc6	0.74239767

fc2.bias f4 [32]
0	0x3eaf3865	0.34222713
1	0xbe3b1621	-0.1827016
2	0x3c23e6c0	0.010003746
3	0xbf8a9162	-1.0825617
4	0xbe2eb03a	-0.17059413
5	0xbd951827	-0.07279997
6	0x3f3bd0aa	0.7336527
7	0x3f3780f4	0.7168114
8	0x3de37244	0.11105779
9	0x3f7dece9	0.9918962
10	0xbf1f0806	-0.6212162
11	0xbd9f5890	-0.07780564
12	0x3e9c0741	0.30474284
13	0x3ed12a13	0.40852413
14	0x3f7da84d	0.9908493
15	0x3f15b60e	0.5848092
16	0x3eb423d5	0.35183588
17	0x3fad7b9a	1.3553345
18	0x3eb83773	0.35979804
19	0xbdad06e4	-0.0844858
20	0x3eefc189	0.46827343
21	0x3e9762f9	0.29567698
22	0xbf50b6fe	-0.81529224
23	0x3f2c02d4	0.67191815
24	0xbf780e5a	-0.968969
25	0xbe7010bc	-0.23443884
26	0x3eb6d9ff	0.35713193
27	0xbf8ff052	-1.1245215
28	0x3f10761b	0.56430215
29	0xbfa5fe5e	-1.2968252
30	0x3e1c5fb4	0.15270883
31	0xbec66fe8	-0.38757253

fc3.weight f4 [2, 32]
0	0xbe173419	-0.14765967
1	0xbc0b8d4e	-0.008517576
2	0xbe1e46ec	-0.15456742
3	0xbee1069f	-0.43950364
4	0xbef7fa0a	-0.48432952
5	0xbe762d45	-0.24040706
6	0xbe8e9054	-0.2784449
7	0xbec12f78	-0.37731528
8	0x3ff438a9	1.9079791
9	0xbeb93620	-0.36174107
10	0x3d15c2e9	0.036562834
11	0xbe74fb71	-0.23924042
12	0x3eb0fee6	0.34569472
13	0xbed2f6c9	-0.41203907
14	0xbe7cce42	-0.24688056
15	0xbdf8259e	-0.1211655
16	0xbe964fca	-0.2935775
17	0x3dc09f47	0.0940538
18	0xbe058151	-0.13037612
19	0xbf174976	-0.5909647
20	0xbe939730	-0.28826284
21	0x3ed7249b	0.42020115
22	0xbe942a8a	-0.28938705
23	0xbd63c362	-0.055606253
24	0xbe008576	-0.12550911
25	0xbe43554d	-0.19075508
26	0x3eeeceb0	0.46642065
27	0xbf2d3b17	-0.6766829
28	0xbf548ed2	-0.83030427
29	0xbf05aa0b	-0.5221259
30	0xbe7b5fb9	-0.24548234
31	0x3e0f1e61	0.13976432
32	0xbe9292cd	-0.28627625
33	0xbe54f248	-0.20795548
34	0xbe46b6e0	-0.19405699
35	0xbe97a474	-0.29617655
36	0xbf061f4b	-0.523915
37	0xbe3de189	-0.18543066
38	0xbe8bbcbb	-0.27292427
39	0xbf0f3c33	-0.5595123
40	0x3faaeb83	1.3353122
41	0xbe909d0c	-0.28244817
42	0x3eaf11bf	0.34193227
43	0xbcafc3e5	-0.021455714
44	0xbd4f2823	-0.050575387
45	0xbea3bb7a	-0.3197897
46	0xbed9dd92	-0.42551857
47	0xbebb2462	-0.36551195
48	0xbe1f6f60	-0.1556983
49	0xbe2ac9d9	-0.16678561
50	0xbcd5bc87	-0.026090873
51	0x3d872d74	0.06600466
52	0xbe21feb8	-0.15819824
53	0x3e33ff23	0.17577796
54	0xbda21c79	-0.07915587
55	0xbebf3b68	-0.3735001
56	0x3e3b88b5	0.18313868
57	0xbe189272	-0.14899614
58	0xbf3c55ab	-0.7356822
59	0xbf00d2c0	-0.5032158
60	0xbf4b6af5	-0.7946008
61	0xbf1ec108	-0.6201329
62	0xbeac37c5	-0.336363
63	0x3ec23605	0.3793184

fc3.bias f4 [2]
0	0x3f3a292b	0.7271907
1	0xbf7dabfa	-0.9909054
